…
I0315 14:15:50.341696 22590 net.cpp:296] The NetState phase (0) differed from the phase (1) specified by a rule in layer loss3/top-5
I0315 14:15:50.342506 22590 net.cpp:53] Initializing net from parameters: 
name: "GoogleNet"
state {
  phase: TRAIN
  level: 0
  stage: ""
}
layer {
  name: "data"
  type: "Data"
  top: "data"
  top: "label"
  include {
    phase: TRAIN
  }
  transform_param {
    mirror: true
    crop_size: 224
    mean_file: "/home/jungmo/Documents/autonomous/caffe/db/mean.binaryproto"
  }
  data_param {
    source: "/home/jungmo/Documents/autonomous/caffe/db/train_imageData_lmDB"
    batch_size: 50
    backend: LMDB
  }
}
layer {
  name: "conv1/7x7_s2"
  type: "Convolution"
  bottom: "data"
  top: "conv1/7x7_s2"
  param {
    lr_mult: 1
    decay_mult: 1
  }
  param {
    lr_mult: 2
    decay_mult: 0
  }
  convolution_param {
    num_output: 64
    pad: 3
    kernel_size: 7
    stride: 2
    weight_filler {
      type: "xavier"
    }
    bias_filler {
      type: "constant"
      value: 0.2
    }
  }
}
layer {
  name: "conv1/relu_7x7"
  type: "ReLU"
  bottom: "conv1/7x7_s2"
  top: "conv1/7x7_s2"
}
layer {
  name: "pool1/3x3_s2"
  type: "Pooling"
  bottom: "conv1/7x7_s2"
  top: "pool1/3x3_s2"
  pooling_param {
    pool: MAX
    kernel_size: 3
    stride: 2
  }
}
layer {
  name: "pool1/norm1"
  type: "LRN"
  bottom: "pool1/3x3_s2"
  top: "pool1/norm1"
  lrn_param {
    local_size: 5
    alpha: 0.0001
    beta: 0.75
  }
}
layer {
  name: "conv2/3x3_reduce"
  type: "Convolution"
  bottom: "pool1/norm1"
  top: "conv2/3x3_reduce"
  param {
    lr_mult: 1
    decay_mult: 1
  }
  param {
    lr_mult: 2
    decay_mult: 0
  }
  convolution_param {
    num_output: 64
    kernel_size: 1
    weight_filler {
      type: "xavier"
    }
    bias_filler {
      type: "constant"
      value: 0.2
    }
  }
}
layer {
  name: "conv2/relu_3x3_reduce"
  type: "ReLU"
  bottom: "conv2/3x3_reduce"
  top: "conv2/3x3_reduce"
}
layer {
  name: "conv2/3x3"
  type: "Convolution"
  bottom: "conv2/3x3_reduce"
  top: "conv2/3x3"
  param {
    lr_mult: 1
    decay_mult: 1
  }
  param {
    lr_mult: 2
    decay_mult: 0
  }
  convolution_param {
    num_output: 192
    pad: 1
    kernel_size: 3
    weight_filler {
      type: "xavier"
    }
    bias_filler {
      type: "constant"
      value: 0.2
    }
  }
}
layer {
  name: "conv2/relu_3x3"
  type: "ReLU"
  bottom: "conv2/3x3"
  top: "conv2/3x3"
}
layer {
  name: "conv2/norm2"
  type: "LRN"
  bottom: "conv2/3x3"
  top: "conv2/norm2"
  lrn_param {
    local_size: 5
    alpha: 0.0001
    beta: 0.75
  }
}
layer {
  name: "pool2/3x3_s2"
  type: "Pooling"
  bottom: "conv2/norm2"
  top: "pool2/3x3_s2"
  pooling_param {
    pool: MAX
    kernel_size: 3
    stride: 2
  }
}
layer {
  name: "inception_3a/1x1"
  type: "Convolution"
  bottom: "pool2/3x3_s2"
  top: "inception_3a/1x1"
  param {
    lr_mult: 1
    decay_mult: 1
  }
  param {
    lr_mult: 2
    decay_mult: 0
  }
  convolution_param {
    num_output: 64
    kernel_size: 1
    weight_filler {
      type: "xavier"
    }
    bias_filler {
      type: "constant"
      value: 0.2
    }
  }
}
layer {
  name: "inception_3a/relu_1x1"
  type: "ReLU"
  bottom: "inception_3a/1x1"
  top: "inception_3a/1x1"
}
layer {
  name: "inception_3a/3x3_reduce"
  type: "Convolution"
  bottom: "pool2/3x3_s2"
  top: "inception_3a/3x3_reduce"
  param {
    lr_mult: 1
    decay_mult: 1
  }
  param {
    lr_mult: 2
    decay_mult: 0
  }
  convolution_param {
    num_output: 96
    kernel_size: 1
    weight_filler {
      type: "xavier"
    }
    bias_filler {
      type: "constant"
      value: 0.2
    }
  }
}
layer {
  name: "inception_3a/relu_3x3_reduce"
  type: "ReLU"
  bottom: "inception_3a/3x3_reduce"
  top: "inception_3a/3x3_reduce"
}
layer {
  name: "inception_3a/3x3"
  type: "Convolution"
  bottom: "inception_3a/3x3_reduce"
  top: "inception_3a/3x3"
  param {
    lr_mult: 1
    decay_mult: 1
  }
  param {
    lr_mult: 2
    decay_mult: 0
  }
  convolution_param {
    num_output: 128
    pad: 1
    kernel_size: 3
    weight_filler {
      type: "xavier"
    }
    bias_filler {
      type: "constant"
      value: 0.2
    }
  }
}
layer {
  name: "inception_3a/relu_3x3"
  type: "ReLU"
  bottom: "inception_3a/3x3"
  top: "inception_3a/3x3"
}
layer {
  name: "inception_3a/5x5_reduce"
  type: "Convolution"
  bottom: "pool2/3x3_s2"
  top: "inception_3a/5x5_reduce"
  param {
    lr_mult: 1
    decay_mult: 1
  }
  param {
    lr_mult: 2
    decay_mult: 0
  }
  convolution_param {
    num_output: 16
    kernel_size: 1
    weight_filler {
      type: "xavier"
    }
    bias_filler {
      type: "constant"
      value: 0.2
    }
  }
}
layer {
  name: "inception_3a/relu_5x5_reduce"
  type: "ReLU"
  bottom: "inception_3a/5x5_reduce"
  top: "inception_3a/5x5_reduce"
}
layer {
  name: "inception_3a/5x5"
  type: "Convolution"
  bottom: "inception_3a/5x5_reduce"
  top: "inception_3a/5x5"
  param {
    lr_mult: 1
    decay_mult: 1
  }
  param {
    lr_mult: 2
    decay_mult: 0
  }
  convolution_param {
    num_output: 32
    pad: 2
    kernel_size: 5
    weight_filler {
      type: "xavier"
    }
    bias_filler {
      type: "constant"
      value: 0.2
    }
  }
}
layer {
  name: "inception_3a/relu_5x5"
  type: "ReLU"
  bottom: "inception_3a/5x5"
  top: "inception_3a/5x5"
}
layer {
  name: "inception_3a/pool"
  type: "Pooling"
  bottom: "pool2/3x3_s2"
  top: "inception_3a/pool"
  pooling_param {
    pool: MAX
    kernel_size: 3
    stride: 1
    pad: 1
  }
}
layer {
  name: "inception_3a/pool_proj"
  type: "Convolution"
  bottom: "inception_3a/pool"
  top: "inception_3a/pool_proj"
  param {
    lr_mult: 1
    decay_mult: 1
  }
  param {
    lr_mult: 2
    decay_mult: 0
  }
  convolution_param {
    num_output: 32
    kernel_size: 1
    weight_filler {
      type: "xavier"
    }
    bias_filler {
      type: "constant"
      value: 0.2
    }
  }
}
layer {
  name: "inception_3a/relu_pool_proj"
  type: "ReLU"
  bottom: "inception_3a/pool_proj"
  top: "inception_3a/pool_proj"
}
layer {
  name: "inception_3a/output"
  type: "Concat"
  bottom: "inception_3a/1x1"
  bottom: "inception_3a/3x3"
  bottom: "inception_3a/5x5"
  bottom: "inception_3a/pool_proj"
  top: "inception_3a/output"
}
layer {
  name: "inception_3b/1x1"
  type: "Convolution"
  bottom: "inception_3a/output"
  top: "inception_3b/1x1"
  param {
    lr_mult: 1
    decay_mult: 1
  }
  param {
    lr_mult: 2
    decay_mult: 0
  }
  convolution_param {
    num_output: 128
    kernel_size: 1
    weight_filler {
      type: "xavier"
    }
    bias_filler {
      type: "constant"
      value: 0.2
    }
  }
}
layer {
  name: "inception_3b/relu_1x1"
  type: "ReLU"
  bottom: "inception_3b/1x1"
  top: "inception_3b/1x1"
}
layer {
  name: "inception_3b/3x3_reduce"
  type: "Convolution"
  bottom: "inception_3a/output"
  top: "inception_3b/3x3_reduce"
  param {
    lr_mult: 1
    decay_mult: 1
  }
  param {
    lr_mult: 2
    decay_mult: 0
  }
  convolution_param {
    num_output: 128
    kernel_size: 1
    weight_filler {
      type: "xavier"
    }
    bias_filler {
      type: "constant"
      value: 0.2
    }
  }
}
layer {
  name: "inception_3b/relu_3x3_reduce"
  type: "ReLU"
  bottom: "inception_3b/3x3_reduce"
  top: "inception_3b/3x3_reduce"
}
layer {
  name: "inception_3b/3x3"
  type: "Convolution"
  bottom: "inception_3b/3x3_reduce"
  top: "inception_3b/3x3"
  param {
    lr_mult: 1
    decay_mult: 1
  }
  param {
    lr_mult: 2
    decay_mult: 0
  }
  convolution_param {
    num_output: 192
    pad: 1
    kernel_size: 3
    weight_filler {
      type: "xavier"
    }
    bias_filler {
      type: "constant"
      value: 0.2
    }
  }
}
layer {
  name: "inception_3b/relu_3x3"
  type: "ReLU"
  bottom: "inception_3b/3x3"
  top: "inception_3b/3x3"
}
layer {
  name: "inception_3b/5x5_reduce"
  type: "Convolution"
  bottom: "inception_3a/output"
  top: "inception_3b/5x5_reduce"
  param {
    lr_mult: 1
    decay_mult: 1
  }
  param {
    lr_mult: 2
    decay_mult: 0
  }
  convolution_param {
    num_output: 32
    kernel_size: 1
    weight_filler {
      type: "xavier"
    }
    bias_filler {
      type: "constant"
      value: 0.2
    }
  }
}
layer {
  name: "inception_3b/relu_5x5_reduce"
  type: "ReLU"
  bottom: "inception_3b/5x5_reduce"
  top: "inception_3b/5x5_reduce"
}
layer {
  name: "inception_3b/5x5"
  type: "Convolution"
  bottom: "inception_3b/5x5_reduce"
  top: "inception_3b/5x5"
  param {
    lr_mult: 1
    decay_mult: 1
  }
  param {
    lr_mult: 2
    decay_mult: 0
  }
  convolution_param {
    num_output: 96
    pad: 2
    kernel_size: 5
    weight_filler {
      type: "xavier"
    }
    bias_filler {
      type: "constant"
      value: 0.2
    }
  }
}
layer {
  name: "inception_3b/relu_5x5"
  type: "ReLU"
  bottom: "inception_3b/5x5"
  top: "inception_3b/5x5"
}
layer {
  name: "inception_3b/pool"
  type: "Pooling"
  bottom: "inception_3a/output"
  top: "inception_3b/pool"
  pooling_param {
    pool: MAX
    kernel_size: 3
    stride: 1
    pad: 1
  }
}
layer {
  name: "inception_3b/pool_proj"
  type: "Convolution"
  bottom: "inception_3b/pool"
  top: "inception_3b/pool_proj"
  param {
    lr_mult: 1
    decay_mult: 1
  }
  param {
    lr_mult: 2
    decay_mult: 0
  }
  convolution_param {
    num_output: 64
    kernel_size: 1
    weight_filler {
      type: "xavier"
    }
    bias_filler {
      type: "constant"
      value: 0.2
    }
  }
}
layer {
  name: "inception_3b/relu_pool_proj"
  type: "ReLU"
  bottom: "inception_3b/pool_proj"
  top: "inception_3b/pool_proj"
}
layer {
  name: "inception_3b/output"
  type: "Concat"
  bottom: "inception_3b/1x1"
  bottom: "inception_3b/3x3"
  bottom: "inception_3b/5x5"
  bottom: "inception_3b/pool_proj"
  top: "inception_3b/output"
}
layer {
  name: "pool3/3x3_s2"
  type: "Pooling"
  bottom: "inception_3b/output"
  top: "pool3/3x3_s2"
  pooling_param {
    pool: MAX
    kernel_size: 3
    stride: 2
  }
}
layer {
  name: "inception_4a/1x1"
  type: "Convolution"
  bottom: "pool3/3x3_s2"
  top: "inception_4a/1x1"
  param {
    lr_mult: 1
    decay_mult: 1
  }
  param {
    lr_mult: 2
    decay_mult: 0
  }
  convolution_param {
    num_output: 192
    kernel_size: 1
    weight_filler {
      type: "xavier"
    }
    bias_filler {
      type: "constant"
      value: 0.2
    }
  }
}
layer {
  name: "inception_4a/relu_1x1"
  type: "ReLU"
  bottom: "inception_4a/1x1"
  top: "inception_4a/1x1"
}
layer {
  name: "inception_4a/3x3_reduce"
  type: "Convolution"
  bottom: "pool3/3x3_s2"
  top: "inception_4a/3x3_reduce"
  param {
    lr_mult: 1
    decay_mult: 1
  }
  param {
    lr_mult: 2
    decay_mult: 0
  }
  convolution_param {
    num_output: 96
    kernel_size: 1
    weight_filler {
      type: "xavier"
    }
    bias_filler {
      type: "constant"
      value: 0.2
    }
  }
}
layer {
  name: "inception_4a/relu_3x3_reduce"
  type: "ReLU"
  bottom: "inception_4a/3x3_reduce"
  top: "inception_4a/3x3_reduce"
}
layer {
  name: "inception_4a/3x3"
  type: "Convolution"
  bottom: "inception_4a/3x3_reduce"
  top: "inception_4a/3x3"
  param {
    lr_mult: 1
    decay_mult: 1
  }
  param {
    lr_mult: 2
    decay_mult: 0
  }
  convolution_param {
    num_output: 208
    pad: 1
    kernel_size: 3
    weight_filler {
      type: "xavier"
    }
    bias_filler {
      type: "constant"
      value: 0.2
    }
  }
}
layer {
  name: "inception_4a/relu_3x3"
  type: "ReLU"
  bottom: "inception_4a/3x3"
  top: "inception_4a/3x3"
}
layer {
  name: "inception_4a/5x5_reduce"
  type: "Convolution"
  bottom: "pool3/3x3_s2"
  top: "inception_4a/5x5_reduce"
  param {
    lr_mult: 1
    decay_mult: 1
  }
  param {
    lr_mult: 2
    decay_mult: 0
  }
  convolution_param {
    num_output: 16
    kernel_size: 1
    weight_filler {
      type: "xavier"
    }
    bias_filler {
      type: "constant"
      value: 0.2
    }
  }
}
layer {
  name: "inception_4a/relu_5x5_reduce"
  type: "ReLU"
  bottom: "inception_4a/5x5_reduce"
  top: "inception_4a/5x5_reduce"
}
layer {
  name: "inception_4a/5x5"
  type: "Convolution"
  bottom: "inception_4a/5x5_reduce"
  top: "inception_4a/5x5"
  param {
    lr_mult: 1
    decay_mult: 1
  }
  param {
    lr_mult: 2
    decay_mult: 0
  }
  convolution_param {
    num_output: 48
    pad: 2
    kernel_size: 5
    weight_filler {
      type: "xavier"
    }
    bias_filler {
      type: "constant"
      value: 0.2
    }
  }
}
layer {
  name: "inception_4a/relu_5x5"
  type: "ReLU"
  bottom: "inception_4a/5x5"
  top: "inception_4a/5x5"
}
layer {
  name: "inception_4a/pool"
  type: "Pooling"
  bottom: "pool3/3x3_s2"
  top: "inception_4a/pool"
  pooling_param {
    pool: MAX
    kernel_size: 3
    stride: 1
    pad: 1
  }
}
layer {
  name: "inception_4a/pool_proj"
  type: "Convolution"
  bottom: "inception_4a/pool"
  top: "inception_4a/pool_proj"
  param {
    lr_mult: 1
    decay_mult: 1
  }
  param {
    lr_mult: 2
    decay_mult: 0
  }
  convolution_param {
    num_output: 64
    kernel_size: 1
    weight_filler {
      type: "xavier"
    }
    bias_filler {
      type: "constant"
      value: 0.2
    }
  }
}
layer {
  name: "inception_4a/relu_pool_proj"
  type: "ReLU"
  bottom: "inception_4a/pool_proj"
  top: "inception_4a/pool_proj"
}
layer {
  name: "inception_4a/output"
  type: "Concat"
  bottom: "inception_4a/1x1"
  bottom: "inception_4a/3x3"
  bottom: "inception_4a/5x5"
  bottom: "inception_4a/pool_proj"
  top: "inception_4a/output"
}
layer {
  name: "loss1/ave_pool"
  type: "Pooling"
  bottom: "inception_4a/output"
  top: "loss1/ave_pool"
  pooling_param {
    pool: AVE
    kernel_size: 5
    stride: 3
  }
}
layer {
  name: "loss1/conv"
  type: "Convolution"
  bottom: "loss1/ave_pool"
  top: "loss1/conv"
  param {
    lr_mult: 1
    decay_mult: 1
  }
  param {
    lr_mult: 2
    decay_mult: 0
  }
  convolution_param {
    num_output: 128
    kernel_size: 1
    weight_filler {
      type: "xavier"
    }
    bias_filler {
      type: "constant"
      value: 0.2
    }
  }
}
layer {
  name: "loss1/relu_conv"
  type: "ReLU"
  bottom: "loss1/conv"
  top: "loss1/conv"
}
layer {
  name: "loss1/fc"
  type: "InnerProduct"
  bottom: "loss1/conv"
  top: "loss1/fc"
  param {
    lr_mult: 1
    decay_mult: 1
  }
  param {
    lr_mult: 2
    decay_mult: 0
  }
  inner_product_param {
    num_output: 1024
    weight_filler {
      type: "xavier"
    }
    bias_filler {
      type: "constant"
      value: 0.2
    }
  }
}
layer {
  name: "loss1/relu_fc"
  type: "ReLU"
  bottom: "loss1/fc"
  top: "loss1/fc"
}
layer {
  name: "loss1/drop_fc"
  type: "Dropout"
  bottom: "loss1/fc"
  top: "loss1/fc"
  dropout_param {
    dropout_ratio: 0.7
  }
}
layer {
  name: "loss1/classifier-bird"
  type: "InnerProduct"
  bottom: "loss1/fc"
  top: "loss1/classifier"
  param {
    lr_mult: 1
    decay_mult: 1
  }
  param {
    lr_mult: 2
    decay_mult: 0
  }
  inner_product_param {
    num_output: 4
    weight_filler {
      type: "xavier"
    }
    bias_filler {
      type: "constant"
      value: 0
    }
  }
}
layer {
  name: "loss1/loss"
  type: "SoftmaxWithLoss"
  bottom: "loss1/classifier"
  bottom: "label"
  top: "loss1/loss1"
  loss_weight: 0.3
}
layer {
  name: "inception_4b/1x1"
  type: "Convolution"
  bottom: "inception_4a/output"
  top: "inception_4b/1x1"
  param {
    lr_mult: 1
    decay_mult: 1
  }
  param {
    lr_mult: 2
    decay_mult: 0
  }
  convolution_param {
    num_output: 160
    kernel_size: 1
    weight_filler {
      type: "xavier"
    }
    bias_filler {
      type: "constant"
      value: 0.2
    }
  }
}
layer {
  name: "inception_4b/relu_1x1"
  type: "ReLU"
  bottom: "inception_4b/1x1"
  top: "inception_4b/1x1"
}
layer {
  name: "inception_4b/3x3_reduce"
  type: "Convolution"
  bottom: "inception_4a/output"
  top: "inception_4b/3x3_reduce"
  param {
    lr_mult: 1
    decay_mult: 1
  }
  param {
    lr_mult: 2
    decay_mult: 0
  }
  convolution_param {
    num_output: 112
    kernel_size: 1
    weight_filler {
      type: "xavier"
    }
    bias_filler {
      type: "constant"
      value: 0.2
    }
  }
}
layer {
  name: "inception_4b/relu_3x3_reduce"
  type: "ReLU"
  bottom: "inception_4b/3x3_reduce"
  top: "inception_4b/3x3_reduce"
}
layer {
  name: "inception_4b/3x3"
  type: "Convolution"
  bottom: "inception_4b/3x3_reduce"
  top: "inception_4b/3x3"
  param {
    lr_mult: 1
    decay_mult: 1
  }
  param {
    lr_mult: 2
    decay_mult: 0
  }
  convolution_param {
    num_output: 224
    pad: 1
    kernel_size: 3
    weight_filler {
      type: "xavier"
    }
    bias_filler {
      type: "constant"
      value: 0.2
    }
  }
}
layer {
  name: "inception_4b/relu_3x3"
  type: "ReLU"
  bottom: "inception_4b/3x3"
  top: "inception_4b/3x3"
}
layer {
  name: "inception_4b/5x5_reduce"
  type: "Convolution"
  bottom: "inception_4a/output"
  top: "inception_4b/5x5_reduce"
  param {
    lr_mult: 1
    decay_mult: 1
  }
  param {
    lr_mult: 2
    decay_mult: 0
  }
  convolution_param {
    num_output: 24
    kernel_size: 1
    weight_filler {
      type: "xavier"
    }
    bias_filler {
      type: "constant"
      value: 0.2
    }
  }
}
layer {
  name: "inception_4b/relu_5x5_reduce"
  type: "ReLU"
  bottom: "inception_4b/5x5_reduce"
  top: "inception_4b/5x5_reduce"
}
layer {
  name: "inception_4b/5x5"
  type: "Convolution"
  bottom: "inception_4b/5x5_reduce"
  top: "inception_4b/5x5"
  param {
    lr_mult: 1
    decay_mult: 1
  }
  param {
    lr_mult: 2
    decay_mult: 0
  }
  convolution_param {
    num_output: 64
    pad: 2
    kernel_size: 5
    weight_filler {
      type: "xavier"
    }
    bias_filler {
      type: "constant"
      value: 0.2
    }
  }
}
layer {
  name: "inception_4b/relu_5x5"
  type: "ReLU"
  bottom: "inception_4b/5x5"
  top: "inception_4b/5x5"
}
layer {
  name: "inception_4b/pool"
  type: "Pooling"
  bottom: "inception_4a/output"
  top: "inception_4b/pool"
  pooling_param {
    pool: MAX
    kernel_size: 3
    stride: 1
    pad: 1
  }
}
layer {
  name: "inception_4b/pool_proj"
  type: "Convolution"
  bottom: "inception_4b/pool"
  top: "inception_4b/pool_proj"
  param {
    lr_mult: 1
    decay_mult: 1
  }
  param {
    lr_mult: 2
    decay_mult: 0
  }
  convolution_param {
    num_output: 64
    kernel_size: 1
    weight_filler {
      type: "xavier"
    }
    bias_filler {
      type: "constant"
      value: 0.2
    }
  }
}
layer {
  name: "inception_4b/relu_pool_proj"
  type: "ReLU"
  bottom: "inception_4b/pool_proj"
  top: "inception_4b/pool_proj"
}
layer {
  name: "inception_4b/output"
  type: "Concat"
  bottom: "inception_4b/1x1"
  bottom: "inception_4b/3x3"
  bottom: "inception_4b/5x5"
  bottom: "inception_4b/pool_proj"
  top: "inception_4b/output"
}
layer {
  name: "inception_4c/1x1"
  type: "Convolution"
  bottom: "inception_4b/output"
  top: "inception_4c/1x1"
  param {
    lr_mult: 1
    decay_mult: 1
  }
  param {
    lr_mult: 2
    decay_mult: 0
  }
  convolution_param {
    num_output: 128
    kernel_size: 1
    weight_filler {
      type: "xavier"
    }
    bias_filler {
      type: "constant"
      value: 0.2
    }
  }
}
layer {
  name: "inception_4c/relu_1x1"
  type: "ReLU"
  bottom: "inception_4c/1x1"
  top: "inception_4c/1x1"
}
layer {
  name: "inception_4c/3x3_reduce"
  type: "Convolution"
  bottom: "inception_4b/output"
  top: "inception_4c/3x3_reduce"
  param {
    lr_mult: 1
    decay_mult: 1
  }
  param {
    lr_mult: 2
    decay_mult: 0
  }
  convolution_param {
    num_output: 128
    kernel_size: 1
    weight_filler {
      type: "xavier"
    }
    bias_filler {
      type: "constant"
      value: 0.2
    }
  }
}
layer {
  name: "inception_4c/relu_3x3_reduce"
  type: "ReLU"
  bottom: "inception_4c/3x3_reduce"
  top: "inception_4c/3x3_reduce"
}
layer {
  name: "inception_4c/3x3"
  type: "Convolution"
  bottom: "inception_4c/3x3_reduce"
  top: "inception_4c/3x3"
  param {
    lr_mult: 1
    decay_mult: 1
  }
  param {
    lr_mult: 2
    decay_mult: 0
  }
  convolution_param {
    num_output: 256
    pad: 1
    kernel_size: 3
    weight_filler {
      type: "xavier"
    }
    bias_filler {
      type: "constant"
      value: 0.2
    }
  }
}
layer {
  name: "inception_4c/relu_3x3"
  type: "ReLU"
  bottom: "inception_4c/3x3"
  top: "inception_4c/3x3"
}
layer {
  name: "inception_4c/5x5_reduce"
  type: "Convolution"
  bottom: "inception_4b/output"
  top: "inception_4c/5x5_reduce"
  param {
    lr_mult: 1
    decay_mult: 1
  }
  param {
    lr_mult: 2
    decay_mult: 0
  }
  convolution_param {
    num_output: 24
    kernel_size: 1
    weight_filler {
      type: "xavier"
    }
    bias_filler {
      type: "constant"
      value: 0.2
    }
  }
}
layer {
  name: "inception_4c/relu_5x5_reduce"
  type: "ReLU"
  bottom: "inception_4c/5x5_reduce"
  top: "inception_4c/5x5_reduce"
}
layer {
  name: "inception_4c/5x5"
  type: "Convolution"
  bottom: "inception_4c/5x5_reduce"
  top: "inception_4c/5x5"
  param {
    lr_mult: 1
    decay_mult: 1
  }
  param {
    lr_mult: 2
    decay_mult: 0
  }
  convolution_param {
    num_output: 64
    pad: 2
    kernel_size: 5
    weight_filler {
      type: "xavier"
    }
    bias_filler {
      type: "constant"
      value: 0.2
    }
  }
}
layer {
  name: "inception_4c/relu_5x5"
  type: "ReLU"
  bottom: "inception_4c/5x5"
  top: "inception_4c/5x5"
}
layer {
  name: "inception_4c/pool"
  type: "Pooling"
  bottom: "inception_4b/output"
  top: "inception_4c/pool"
  pooling_param {
    pool: MAX
    kernel_size: 3
    stride: 1
    pad: 1
  }
}
layer {
  name: "inception_4c/pool_proj"
  type: "Convolution"
  bottom: "inception_4c/pool"
  top: "inception_4c/pool_proj"
  param {
    lr_mult: 1
    decay_mult: 1
  }
  param {
    lr_mult: 2
    decay_mult: 0
  }
  convolution_param {
    num_output: 64
    kernel_size: 1
    weight_filler {
      type: "xavier"
    }
    bias_filler {
      type: "constant"
      value: 0.2
    }
  }
}
layer {
  name: "inception_4c/relu_pool_proj"
  type: "ReLU"
  bottom: "inception_4c/pool_proj"
  top: "inception_4c/pool_proj"
}
layer {
  name: "inception_4c/output"
  type: "Concat"
  bottom: "inception_4c/1x1"
  bottom: "inception_4c/3x3"
  bottom: "inception_4c/5x5"
  bottom: "inception_4c/pool_proj"
  top: "inception_4c/output"
}
layer {
  name: "inception_4d/1x1"
  type: "Convolution"
  bottom: "inception_4c/output"
  top: "inception_4d/1x1"
  param {
    lr_mult: 1
    decay_mult: 1
  }
  param {
    lr_mult: 2
    decay_mult: 0
  }
  convolution_param {
    num_output: 112
    kernel_size: 1
    weight_filler {
      type: "xavier"
    }
    bias_filler {
      type: "constant"
      value: 0.2
    }
  }
}
layer {
  name: "inception_4d/relu_1x1"
  type: "ReLU"
  bottom: "inception_4d/1x1"
  top: "inception_4d/1x1"
}
layer {
  name: "inception_4d/3x3_reduce"
  type: "Convolution"
  bottom: "inception_4c/output"
  top: "inception_4d/3x3_reduce"
  param {
    lr_mult: 1
    decay_mult: 1
  }
  param {
    lr_mult: 2
    decay_mult: 0
  }
  convolution_param {
    num_output: 144
    kernel_size: 1
    weight_filler {
      type: "xavier"
    }
    bias_filler {
      type: "constant"
      value: 0.2
    }
  }
}
layer {
  name: "inception_4d/relu_3x3_reduce"
  type: "ReLU"
  bottom: "inception_4d/3x3_reduce"
  top: "inception_4d/3x3_reduce"
}
layer {
  name: "inception_4d/3x3"
  type: "Convolution"
  bottom: "inception_4d/3x3_reduce"
  top: "inception_4d/3x3"
  param {
    lr_mult: 1
    decay_mult: 1
  }
  param {
    lr_mult: 2
    decay_mult: 0
  }
  convolution_param {
    num_output: 288
    pad: 1
    kernel_size: 3
    weight_filler {
      type: "xavier"
    }
    bias_filler {
      type: "constant"
      value: 0.2
    }
  }
}
layer {
  name: "inception_4d/relu_3x3"
  type: "ReLU"
  bottom: "inception_4d/3x3"
  top: "inception_4d/3x3"
}
layer {
  name: "inception_4d/5x5_reduce"
  type: "Convolution"
  bottom: "inception_4c/output"
  top: "inception_4d/5x5_reduce"
  param {
    lr_mult: 1
    decay_mult: 1
  }
  param {
    lr_mult: 2
    decay_mult: 0
  }
  convolution_param {
    num_output: 32
    kernel_size: 1
    weight_filler {
      type: "xavier"
    }
    bias_filler {
      type: "constant"
      value: 0.2
    }
  }
}
layer {
  name: "inception_4d/relu_5x5_reduce"
  type: "ReLU"
  bottom: "inception_4d/5x5_reduce"
  top: "inception_4d/5x5_reduce"
}
layer {
  name: "inception_4d/5x5"
  type: "Convolution"
  bottom: "inception_4d/5x5_reduce"
  top: "inception_4d/5x5"
  param {
    lr_mult: 1
    decay_mult: 1
  }
  param {
    lr_mult: 2
    decay_mult: 0
  }
  convolution_param {
    num_output: 64
    pad: 2
    kernel_size: 5
    weight_filler {
      type: "xavier"
    }
    bias_filler {
      type: "constant"
      value: 0.2
    }
  }
}
layer {
  name: "inception_4d/relu_5x5"
  type: "ReLU"
  bottom: "inception_4d/5x5"
  top: "inception_4d/5x5"
}
layer {
  name: "inception_4d/pool"
  type: "Pooling"
  bottom: "inception_4c/output"
  top: "inception_4d/pool"
  pooling_param {
    pool: MAX
    kernel_size: 3
    stride: 1
    pad: 1
  }
}
layer {
  name: "inception_4d/pool_proj"
  type: "Convolution"
  bottom: "inception_4d/pool"
  top: "inception_4d/pool_proj"
  param {
    lr_mult: 1
    decay_mult: 1
  }
  param {
    lr_mult: 2
    decay_mult: 0
  }
  convolution_param {
    num_output: 64
    kernel_size: 1
    weight_filler {
      type: "xavier"
    }
    bias_filler {
      type: "constant"
      value: 0.2
    }
  }
}
layer {
  name: "inception_4d/relu_pool_proj"
  type: "ReLU"
  bottom: "inception_4d/pool_proj"
  top: "inception_4d/pool_proj"
}
layer {
  name: "inception_4d/output"
  type: "Concat"
  bottom: "inception_4d/1x1"
  bottom: "inception_4d/3x3"
  bottom: "inception_4d/5x5"
  bottom: "inception_4d/pool_proj"
  top: "inception_4d/output"
}
layer {
  name: "loss2/ave_pool"
  type: "Pooling"
  bottom: "inception_4d/output"
  top: "loss2/ave_pool"
  pooling_param {
    pool: AVE
    kernel_size: 5
    stride: 3
  }
}
layer {
  name: "loss2/conv"
  type: "Convolution"
  bottom: "loss2/ave_pool"
  top: "loss2/conv"
  param {
    lr_mult: 1
    decay_mult: 1
  }
  param {
    lr_mult: 2
    decay_mult: 0
  }
  convolution_param {
    num_output: 128
    kernel_size: 1
    weight_filler {
      type: "xavier"
    }
    bias_filler {
      type: "constant"
      value: 0.2
    }
  }
}
layer {
  name: "loss2/relu_conv"
  type: "ReLU"
  bottom: "loss2/conv"
  top: "loss2/conv"
}
layer {
  name: "loss2/fc"
  type: "InnerProduct"
  bottom: "loss2/conv"
  top: "loss2/fc"
  param {
    lr_mult: 1
    decay_mult: 1
  }
  param {
    lr_mult: 2
    decay_mult: 0
  }
  inner_product_param {
    num_output: 1024
    weight_filler {
      type: "xavier"
    }
    bias_filler {
      type: "constant"
      value: 0.2
    }
  }
}
layer {
  name: "loss2/relu_fc"
  type: "ReLU"
  bottom: "loss2/fc"
  top: "loss2/fc"
}
layer {
  name: "loss2/drop_fc"
  type: "Dropout"
  bottom: "loss2/fc"
  top: "loss2/fc"
  dropout_param {
    dropout_ratio: 0.7
  }
}
layer {
  name: "loss2/classifier-bird"
  type: "InnerProduct"
  bottom: "loss2/fc"
  top: "loss2/classifier"
  param {
    lr_mult: 1
    decay_mult: 1
  }
  param {
    lr_mult: 2
    decay_mult: 0
  }
  inner_product_param {
    num_output: 4
    weight_filler {
      type: "xavier"
    }
    bias_filler {
      type: "constant"
      value: 0
    }
  }
}
layer {
  name: "loss2/loss"
  type: "SoftmaxWithLoss"
  bottom: "loss2/classifier"
  bottom: "label"
  top: "loss2/loss1"
  loss_weight: 0.3
}
layer {
  name: "inception_4e/1x1"
  type: "Convolution"
  bottom: "inception_4d/output"
  top: "inception_4e/1x1"
  param {
    lr_mult: 1
    decay_mult: 1
  }
  param {
    lr_mult: 2
    decay_mult: 0
  }
  convolution_param {
    num_output: 256
    kernel_size: 1
    weight_filler {
      type: "xavier"
    }
    bias_filler {
      type: "constant"
      value: 0.2
    }
  }
}
layer {
  name: "inception_4e/relu_1x1"
  type: "ReLU"
  bottom: "inception_4e/1x1"
  top: "inception_4e/1x1"
}
layer {
  name: "inception_4e/3x3_reduce"
  type: "Convolution"
  bottom: "inception_4d/output"
  top: "inception_4e/3x3_reduce"
  param {
    lr_mult: 1
    decay_mult: 1
  }
  param {
    lr_mult: 2
    decay_mult: 0
  }
  convolution_param {
    num_output: 160
    kernel_size: 1
    weight_filler {
      type: "xavier"
    }
    bias_filler {
      type: "constant"
      value: 0.2
    }
  }
}
layer {
  name: "inception_4e/relu_3x3_reduce"
  type: "ReLU"
  bottom: "inception_4e/3x3_reduce"
  top: "inception_4e/3x3_reduce"
}
layer {
  name: "inception_4e/3x3"
  type: "Convolution"
  bottom: "inception_4e/3x3_reduce"
  top: "inception_4e/3x3"
  param {
    lr_mult: 1
    decay_mult: 1
  }
  param {
    lr_mult: 2
    decay_mult: 0
  }
  convolution_param {
    num_output: 320
    pad: 1
    kernel_size: 3
    weight_filler {
      type: "xavier"
    }
    bias_filler {
      type: "constant"
      value: 0.2
    }
  }
}
layer {
  name: "inception_4e/relu_3x3"
  type: "ReLU"
  bottom: "inception_4e/3x3"
  top: "inception_4e/3x3"
}
layer {
  name: "inception_4e/5x5_reduce"
  type: "Convolution"
  bottom: "inception_4d/output"
  top: "inception_4e/5x5_reduce"
  param {
    lr_mult: 1
    decay_mult: 1
  }
  param {
    lr_mult: 2
    decay_mult: 0
  }
  convolution_param {
    num_output: 32
    kernel_size: 1
    weight_filler {
      type: "xavier"
    }
    bias_filler {
      type: "constant"
      value: 0.2
    }
  }
}
layer {
  name: "inception_4e/relu_5x5_reduce"
  type: "ReLU"
  bottom: "inception_4e/5x5_reduce"
  top: "inception_4e/5x5_reduce"
}
layer {
  name: "inception_4e/5x5"
  type: "Convolution"
  bottom: "inception_4e/5x5_reduce"
  top: "inception_4e/5x5"
  param {
    lr_mult: 1
    decay_mult: 1
  }
  param {
    lr_mult: 2
    decay_mult: 0
  }
  convolution_param {
    num_output: 128
    pad: 2
    kernel_size: 5
    weight_filler {
      type: "xavier"
    }
    bias_filler {
      type: "constant"
      value: 0.2
    }
  }
}
layer {
  name: "inception_4e/relu_5x5"
  type: "ReLU"
  bottom: "inception_4e/5x5"
  top: "inception_4e/5x5"
}
layer {
  name: "inception_4e/pool"
  type: "Pooling"
  bottom: "inception_4d/output"
  top: "inception_4e/p
I0315 14:15:50.343149 22590 layer_factory.hpp:77] Creating layer data
I0315 14:15:50.343252 22590 db_lmdb.cpp:35] Opened lmdb /home/jungmo/Documents/autonomous/caffe/db/train_imageData_lmDB
I0315 14:15:50.343281 22590 net.cpp:86] Creating Layer data
I0315 14:15:50.343288 22590 net.cpp:382] data -> data
I0315 14:15:50.343310 22590 net.cpp:382] data -> label
I0315 14:15:50.343322 22590 data_transformer.cpp:25] Loading mean file from: /home/jungmo/Documents/autonomous/caffe/db/mean.binaryproto
I0315 14:15:50.346196 22590 data_layer.cpp:45] output data size: 50,3,224,224
I0315 14:15:50.408527 22590 net.cpp:124] Setting up data
I0315 14:15:50.408562 22590 net.cpp:131] Top shape: 50 3 224 224 (7526400)
I0315 14:15:50.408567 22590 net.cpp:131] Top shape: 50 (50)
I0315 14:15:50.408571 22590 net.cpp:139] Memory required for data: 30105800
I0315 14:15:50.408581 22590 layer_factory.hpp:77] Creating layer label_data_1_split
I0315 14:15:50.408596 22590 net.cpp:86] Creating Layer label_data_1_split
I0315 14:15:50.408601 22590 net.cpp:408] label_data_1_split <- label
I0315 14:15:50.408627 22590 net.cpp:382] label_data_1_split -> label_data_1_split_0
I0315 14:15:50.408638 22590 net.cpp:382] label_data_1_split -> label_data_1_split_1
I0315 14:15:50.408644 22590 net.cpp:382] label_data_1_split -> label_data_1_split_2
I0315 14:15:50.408730 22590 net.cpp:124] Setting up label_data_1_split
I0315 14:15:50.408738 22590 net.cpp:131] Top shape: 50 (50)
I0315 14:15:50.408741 22590 net.cpp:131] Top shape: 50 (50)
I0315 14:15:50.408746 22590 net.cpp:131] Top shape: 50 (50)
I0315 14:15:50.408748 22590 net.cpp:139] Memory required for data: 30106400
I0315 14:15:50.408751 22590 layer_factory.hpp:77] Creating layer conv1/7x7_s2
I0315 14:15:50.408767 22590 net.cpp:86] Creating Layer conv1/7x7_s2
I0315 14:15:50.408772 22590 net.cpp:408] conv1/7x7_s2 <- data
I0315 14:15:50.408777 22590 net.cpp:382] conv1/7x7_s2 -> conv1/7x7_s2
I0315 14:15:50.409773 22590 net.cpp:124] Setting up conv1/7x7_s2
I0315 14:15:50.409786 22590 net.cpp:131] Top shape: 50 64 112 112 (40140800)
I0315 14:15:50.409790 22590 net.cpp:139] Memory required for data: 190669600
I0315 14:15:50.409806 22590 layer_factory.hpp:77] Creating layer conv1/relu_7x7
I0315 14:15:50.409813 22590 net.cpp:86] Creating Layer conv1/relu_7x7
I0315 14:15:50.409817 22590 net.cpp:408] conv1/relu_7x7 <- conv1/7x7_s2
I0315 14:15:50.409822 22590 net.cpp:369] conv1/relu_7x7 -> conv1/7x7_s2 (in-place)
I0315 14:15:50.409828 22590 net.cpp:124] Setting up conv1/relu_7x7
I0315 14:15:50.409832 22590 net.cpp:131] Top shape: 50 64 112 112 (40140800)
I0315 14:15:50.409834 22590 net.cpp:139] Memory required for data: 351232800
I0315 14:15:50.409838 22590 layer_factory.hpp:77] Creating layer pool1/3x3_s2
I0315 14:15:50.409844 22590 net.cpp:86] Creating Layer pool1/3x3_s2
I0315 14:15:50.409847 22590 net.cpp:408] pool1/3x3_s2 <- conv1/7x7_s2
I0315 14:15:50.409852 22590 net.cpp:382] pool1/3x3_s2 -> pool1/3x3_s2
I0315 14:15:50.409888 22590 net.cpp:124] Setting up pool1/3x3_s2
I0315 14:15:50.409894 22590 net.cpp:131] Top shape: 50 64 56 56 (10035200)
I0315 14:15:50.409898 22590 net.cpp:139] Memory required for data: 391373600
I0315 14:15:50.409900 22590 layer_factory.hpp:77] Creating layer pool1/norm1
I0315 14:15:50.409906 22590 net.cpp:86] Creating Layer pool1/norm1
I0315 14:15:50.409909 22590 net.cpp:408] pool1/norm1 <- pool1/3x3_s2
I0315 14:15:50.409914 22590 net.cpp:382] pool1/norm1 -> pool1/norm1
I0315 14:15:50.409940 22590 net.cpp:124] Setting up pool1/norm1
I0315 14:15:50.409945 22590 net.cpp:131] Top shape: 50 64 56 56 (10035200)
I0315 14:15:50.409947 22590 net.cpp:139] Memory required for data: 431514400
I0315 14:15:50.409950 22590 layer_factory.hpp:77] Creating layer conv2/3x3_reduce
I0315 14:15:50.409958 22590 net.cpp:86] Creating Layer conv2/3x3_reduce
I0315 14:15:50.409962 22590 net.cpp:408] conv2/3x3_reduce <- pool1/norm1
I0315 14:15:50.409967 22590 net.cpp:382] conv2/3x3_reduce -> conv2/3x3_reduce
I0315 14:15:50.410938 22590 net.cpp:124] Setting up conv2/3x3_reduce
I0315 14:15:50.410953 22590 net.cpp:131] Top shape: 50 64 56 56 (10035200)
I0315 14:15:50.410958 22590 net.cpp:139] Memory required for data: 471655200
I0315 14:15:50.410965 22590 layer_factory.hpp:77] Creating layer conv2/relu_3x3_reduce
I0315 14:15:50.410972 22590 net.cpp:86] Creating Layer conv2/relu_3x3_reduce
I0315 14:15:50.410976 22590 net.cpp:408] conv2/relu_3x3_reduce <- conv2/3x3_reduce
I0315 14:15:50.410981 22590 net.cpp:369] conv2/relu_3x3_reduce -> conv2/3x3_reduce (in-place)
I0315 14:15:50.410989 22590 net.cpp:124] Setting up conv2/relu_3x3_reduce
I0315 14:15:50.410997 22590 net.cpp:131] Top shape: 50 64 56 56 (10035200)
I0315 14:15:50.411001 22590 net.cpp:139] Memory required for data: 511796000
I0315 14:15:50.411005 22590 layer_factory.hpp:77] Creating layer conv2/3x3
I0315 14:15:50.411015 22590 net.cpp:86] Creating Layer conv2/3x3
I0315 14:15:50.411017 22590 net.cpp:408] conv2/3x3 <- conv2/3x3_reduce
I0315 14:15:50.411023 22590 net.cpp:382] conv2/3x3 -> conv2/3x3
I0315 14:15:50.415980 22590 net.cpp:124] Setting up conv2/3x3
I0315 14:15:50.416016 22590 net.cpp:131] Top shape: 50 192 56 56 (30105600)
I0315 14:15:50.416049 22590 net.cpp:139] Memory required for data: 632218400
I0315 14:15:50.416059 22590 layer_factory.hpp:77] Creating layer conv2/relu_3x3
I0315 14:15:50.416066 22590 net.cpp:86] Creating Layer conv2/relu_3x3
I0315 14:15:50.416069 22590 net.cpp:408] conv2/relu_3x3 <- conv2/3x3
I0315 14:15:50.416074 22590 net.cpp:369] conv2/relu_3x3 -> conv2/3x3 (in-place)
I0315 14:15:50.416080 22590 net.cpp:124] Setting up conv2/relu_3x3
I0315 14:15:50.416085 22590 net.cpp:131] Top shape: 50 192 56 56 (30105600)
I0315 14:15:50.416088 22590 net.cpp:139] Memory required for data: 752640800
I0315 14:15:50.416091 22590 layer_factory.hpp:77] Creating layer conv2/norm2
I0315 14:15:50.416096 22590 net.cpp:86] Creating Layer conv2/norm2
I0315 14:15:50.416100 22590 net.cpp:408] conv2/norm2 <- conv2/3x3
I0315 14:15:50.416105 22590 net.cpp:382] conv2/norm2 -> conv2/norm2
I0315 14:15:50.416131 22590 net.cpp:124] Setting up conv2/norm2
I0315 14:15:50.416136 22590 net.cpp:131] Top shape: 50 192 56 56 (30105600)
I0315 14:15:50.416139 22590 net.cpp:139] Memory required for data: 873063200
I0315 14:15:50.416142 22590 layer_factory.hpp:77] Creating layer pool2/3x3_s2
I0315 14:15:50.416147 22590 net.cpp:86] Creating Layer pool2/3x3_s2
I0315 14:15:50.416151 22590 net.cpp:408] pool2/3x3_s2 <- conv2/norm2
I0315 14:15:50.416155 22590 net.cpp:382] pool2/3x3_s2 -> pool2/3x3_s2
I0315 14:15:50.416179 22590 net.cpp:124] Setting up pool2/3x3_s2
I0315 14:15:50.416184 22590 net.cpp:131] Top shape: 50 192 28 28 (7526400)
I0315 14:15:50.416188 22590 net.cpp:139] Memory required for data: 903168800
I0315 14:15:50.416190 22590 layer_factory.hpp:77] Creating layer pool2/3x3_s2_pool2/3x3_s2_0_split
I0315 14:15:50.416196 22590 net.cpp:86] Creating Layer pool2/3x3_s2_pool2/3x3_s2_0_split
I0315 14:15:50.416199 22590 net.cpp:408] pool2/3x3_s2_pool2/3x3_s2_0_split <- pool2/3x3_s2
I0315 14:15:50.416204 22590 net.cpp:382] pool2/3x3_s2_pool2/3x3_s2_0_split -> pool2/3x3_s2_pool2/3x3_s2_0_split_0
I0315 14:15:50.416211 22590 net.cpp:382] pool2/3x3_s2_pool2/3x3_s2_0_split -> pool2/3x3_s2_pool2/3x3_s2_0_split_1
I0315 14:15:50.416216 22590 net.cpp:382] pool2/3x3_s2_pool2/3x3_s2_0_split -> pool2/3x3_s2_pool2/3x3_s2_0_split_2
I0315 14:15:50.416223 22590 net.cpp:382] pool2/3x3_s2_pool2/3x3_s2_0_split -> pool2/3x3_s2_pool2/3x3_s2_0_split_3
I0315 14:15:50.416260 22590 net.cpp:124] Setting up pool2/3x3_s2_pool2/3x3_s2_0_split
I0315 14:15:50.416265 22590 net.cpp:131] Top shape: 50 192 28 28 (7526400)
I0315 14:15:50.416268 22590 net.cpp:131] Top shape: 50 192 28 28 (7526400)
I0315 14:15:50.416272 22590 net.cpp:131] Top shape: 50 192 28 28 (7526400)
I0315 14:15:50.416275 22590 net.cpp:131] Top shape: 50 192 28 28 (7526400)
I0315 14:15:50.416280 22590 net.cpp:139] Memory required for data: 1023591200
I0315 14:15:50.416281 22590 layer_factory.hpp:77] Creating layer inception_3a/1x1
I0315 14:15:50.416290 22590 net.cpp:86] Creating Layer inception_3a/1x1
I0315 14:15:50.416292 22590 net.cpp:408] inception_3a/1x1 <- pool2/3x3_s2_pool2/3x3_s2_0_split_0
I0315 14:15:50.416298 22590 net.cpp:382] inception_3a/1x1 -> inception_3a/1x1
I0315 14:15:50.417235 22590 net.cpp:124] Setting up inception_3a/1x1
I0315 14:15:50.417253 22590 net.cpp:131] Top shape: 50 64 28 28 (2508800)
I0315 14:15:50.417256 22590 net.cpp:139] Memory required for data: 1033626400
I0315 14:15:50.417263 22590 layer_factory.hpp:77] Creating layer inception_3a/relu_1x1
I0315 14:15:50.417270 22590 net.cpp:86] Creating Layer inception_3a/relu_1x1
I0315 14:15:50.417278 22590 net.cpp:408] inception_3a/relu_1x1 <- inception_3a/1x1
I0315 14:15:50.417284 22590 net.cpp:369] inception_3a/relu_1x1 -> inception_3a/1x1 (in-place)
I0315 14:15:50.417289 22590 net.cpp:124] Setting up inception_3a/relu_1x1
I0315 14:15:50.417294 22590 net.cpp:131] Top shape: 50 64 28 28 (2508800)
I0315 14:15:50.417297 22590 net.cpp:139] Memory required for data: 1043661600
I0315 14:15:50.417299 22590 layer_factory.hpp:77] Creating layer inception_3a/3x3_reduce
I0315 14:15:50.417309 22590 net.cpp:86] Creating Layer inception_3a/3x3_reduce
I0315 14:15:50.417311 22590 net.cpp:408] inception_3a/3x3_reduce <- pool2/3x3_s2_pool2/3x3_s2_0_split_1
I0315 14:15:50.417321 22590 net.cpp:382] inception_3a/3x3_reduce -> inception_3a/3x3_reduce
I0315 14:15:50.418282 22590 net.cpp:124] Setting up inception_3a/3x3_reduce
I0315 14:15:50.418295 22590 net.cpp:131] Top shape: 50 96 28 28 (3763200)
I0315 14:15:50.418298 22590 net.cpp:139] Memory required for data: 1058714400
I0315 14:15:50.418306 22590 layer_factory.hpp:77] Creating layer inception_3a/relu_3x3_reduce
I0315 14:15:50.418315 22590 net.cpp:86] Creating Layer inception_3a/relu_3x3_reduce
I0315 14:15:50.418319 22590 net.cpp:408] inception_3a/relu_3x3_reduce <- inception_3a/3x3_reduce
I0315 14:15:50.418324 22590 net.cpp:369] inception_3a/relu_3x3_reduce -> inception_3a/3x3_reduce (in-place)
I0315 14:15:50.418330 22590 net.cpp:124] Setting up inception_3a/relu_3x3_reduce
I0315 14:15:50.418334 22590 net.cpp:131] Top shape: 50 96 28 28 (3763200)
I0315 14:15:50.418339 22590 net.cpp:139] Memory required for data: 1073767200
I0315 14:15:50.418340 22590 layer_factory.hpp:77] Creating layer inception_3a/3x3
I0315 14:15:50.418349 22590 net.cpp:86] Creating Layer inception_3a/3x3
I0315 14:15:50.418351 22590 net.cpp:408] inception_3a/3x3 <- inception_3a/3x3_reduce
I0315 14:15:50.418357 22590 net.cpp:382] inception_3a/3x3 -> inception_3a/3x3
I0315 14:15:50.419128 22590 net.cpp:124] Setting up inception_3a/3x3
I0315 14:15:50.419138 22590 net.cpp:131] Top shape: 50 128 28 28 (5017600)
I0315 14:15:50.419142 22590 net.cpp:139] Memory required for data: 1093837600
I0315 14:15:50.419148 22590 layer_factory.hpp:77] Creating layer inception_3a/relu_3x3
I0315 14:15:50.419154 22590 net.cpp:86] Creating Layer inception_3a/relu_3x3
I0315 14:15:50.419157 22590 net.cpp:408] inception_3a/relu_3x3 <- inception_3a/3x3
I0315 14:15:50.419162 22590 net.cpp:369] inception_3a/relu_3x3 -> inception_3a/3x3 (in-place)
I0315 14:15:50.419168 22590 net.cpp:124] Setting up inception_3a/relu_3x3
I0315 14:15:50.419173 22590 net.cpp:131] Top shape: 50 128 28 28 (5017600)
I0315 14:15:50.419176 22590 net.cpp:139] Memory required for data: 1113908000
I0315 14:15:50.419179 22590 layer_factory.hpp:77] Creating layer inception_3a/5x5_reduce
I0315 14:15:50.419186 22590 net.cpp:86] Creating Layer inception_3a/5x5_reduce
I0315 14:15:50.419190 22590 net.cpp:408] inception_3a/5x5_reduce <- pool2/3x3_s2_pool2/3x3_s2_0_split_2
I0315 14:15:50.419196 22590 net.cpp:382] inception_3a/5x5_reduce -> inception_3a/5x5_reduce
I0315 14:15:50.419397 22590 net.cpp:124] Setting up inception_3a/5x5_reduce
I0315 14:15:50.419405 22590 net.cpp:131] Top shape: 50 16 28 28 (627200)
I0315 14:15:50.419409 22590 net.cpp:139] Memory required for data: 1116416800
I0315 14:15:50.419414 22590 layer_factory.hpp:77] Creating layer inception_3a/relu_5x5_reduce
I0315 14:15:50.419419 22590 net.cpp:86] Creating Layer inception_3a/relu_5x5_reduce
I0315 14:15:50.419422 22590 net.cpp:408] inception_3a/relu_5x5_reduce <- inception_3a/5x5_reduce
I0315 14:15:50.419427 22590 net.cpp:369] inception_3a/relu_5x5_reduce -> inception_3a/5x5_reduce (in-place)
I0315 14:15:50.419432 22590 net.cpp:124] Setting up inception_3a/relu_5x5_reduce
I0315 14:15:50.419436 22590 net.cpp:131] Top shape: 50 16 28 28 (627200)
I0315 14:15:50.419440 22590 net.cpp:139] Memory required for data: 1118925600
I0315 14:15:50.419442 22590 layer_factory.hpp:77] Creating layer inception_3a/5x5
I0315 14:15:50.419448 22590 net.cpp:86] Creating Layer inception_3a/5x5
I0315 14:15:50.419452 22590 net.cpp:408] inception_3a/5x5 <- inception_3a/5x5_reduce
I0315 14:15:50.419461 22590 net.cpp:382] inception_3a/5x5 -> inception_3a/5x5
I0315 14:15:50.419684 22590 net.cpp:124] Setting up inception_3a/5x5
I0315 14:15:50.419690 22590 net.cpp:131] Top shape: 50 32 28 28 (1254400)
I0315 14:15:50.419693 22590 net.cpp:139] Memory required for data: 1123943200
I0315 14:15:50.419699 22590 layer_factory.hpp:77] Creating layer inception_3a/relu_5x5
I0315 14:15:50.419704 22590 net.cpp:86] Creating Layer inception_3a/relu_5x5
I0315 14:15:50.419708 22590 net.cpp:408] inception_3a/relu_5x5 <- inception_3a/5x5
I0315 14:15:50.419718 22590 net.cpp:369] inception_3a/relu_5x5 -> inception_3a/5x5 (in-place)
I0315 14:15:50.419724 22590 net.cpp:124] Setting up inception_3a/relu_5x5
I0315 14:15:50.419728 22590 net.cpp:131] Top shape: 50 32 28 28 (1254400)
I0315 14:15:50.419731 22590 net.cpp:139] Memory required for data: 1128960800
I0315 14:15:50.419734 22590 layer_factory.hpp:77] Creating layer inception_3a/pool
I0315 14:15:50.419740 22590 net.cpp:86] Creating Layer inception_3a/pool
I0315 14:15:50.419744 22590 net.cpp:408] inception_3a/pool <- pool2/3x3_s2_pool2/3x3_s2_0_split_3
I0315 14:15:50.419747 22590 net.cpp:382] inception_3a/pool -> inception_3a/pool
I0315 14:15:50.419775 22590 net.cpp:124] Setting up inception_3a/pool
I0315 14:15:50.419780 22590 net.cpp:131] Top shape: 50 192 28 28 (7526400)
I0315 14:15:50.419783 22590 net.cpp:139] Memory required for data: 1159066400
I0315 14:15:50.419786 22590 layer_factory.hpp:77] Creating layer inception_3a/pool_proj
I0315 14:15:50.419793 22590 net.cpp:86] Creating Layer inception_3a/pool_proj
I0315 14:15:50.419797 22590 net.cpp:408] inception_3a/pool_proj <- inception_3a/pool
I0315 14:15:50.419802 22590 net.cpp:382] inception_3a/pool_proj -> inception_3a/pool_proj
I0315 14:15:50.419991 22590 net.cpp:124] Setting up inception_3a/pool_proj
I0315 14:15:50.419996 22590 net.cpp:131] Top shape: 50 32 28 28 (1254400)
I0315 14:15:50.419999 22590 net.cpp:139] Memory required for data: 1164084000
I0315 14:15:50.420008 22590 layer_factory.hpp:77] Creating layer inception_3a/relu_pool_proj
I0315 14:15:50.420013 22590 net.cpp:86] Creating Layer inception_3a/relu_pool_proj
I0315 14:15:50.420017 22590 net.cpp:408] inception_3a/relu_pool_proj <- inception_3a/pool_proj
I0315 14:15:50.420022 22590 net.cpp:369] inception_3a/relu_pool_proj -> inception_3a/pool_proj (in-place)
I0315 14:15:50.420027 22590 net.cpp:124] Setting up inception_3a/relu_pool_proj
I0315 14:15:50.420032 22590 net.cpp:131] Top shape: 50 32 28 28 (1254400)
I0315 14:15:50.420033 22590 net.cpp:139] Memory required for data: 1169101600
I0315 14:15:50.420037 22590 layer_factory.hpp:77] Creating layer inception_3a/output
I0315 14:15:50.420042 22590 net.cpp:86] Creating Layer inception_3a/output
I0315 14:15:50.420045 22590 net.cpp:408] inception_3a/output <- inception_3a/1x1
I0315 14:15:50.420049 22590 net.cpp:408] inception_3a/output <- inception_3a/3x3
I0315 14:15:50.420054 22590 net.cpp:408] inception_3a/output <- inception_3a/5x5
I0315 14:15:50.420058 22590 net.cpp:408] inception_3a/output <- inception_3a/pool_proj
I0315 14:15:50.420061 22590 net.cpp:382] inception_3a/output -> inception_3a/output
I0315 14:15:50.420080 22590 net.cpp:124] Setting up inception_3a/output
I0315 14:15:50.420085 22590 net.cpp:131] Top shape: 50 256 28 28 (10035200)
I0315 14:15:50.420089 22590 net.cpp:139] Memory required for data: 1209242400
I0315 14:15:50.420091 22590 layer_factory.hpp:77] Creating layer inception_3a/output_inception_3a/output_0_split
I0315 14:15:50.420096 22590 net.cpp:86] Creating Layer inception_3a/output_inception_3a/output_0_split
I0315 14:15:50.420100 22590 net.cpp:408] inception_3a/output_inception_3a/output_0_split <- inception_3a/output
I0315 14:15:50.420105 22590 net.cpp:382] inception_3a/output_inception_3a/output_0_split -> inception_3a/output_inception_3a/output_0_split_0
I0315 14:15:50.420111 22590 net.cpp:382] inception_3a/output_inception_3a/output_0_split -> inception_3a/output_inception_3a/output_0_split_1
I0315 14:15:50.420117 22590 net.cpp:382] inception_3a/output_inception_3a/output_0_split -> inception_3a/output_inception_3a/output_0_split_2
I0315 14:15:50.420126 22590 net.cpp:382] inception_3a/output_inception_3a/output_0_split -> inception_3a/output_inception_3a/output_0_split_3
I0315 14:15:50.420167 22590 net.cpp:124] Setting up inception_3a/output_inception_3a/output_0_split
I0315 14:15:50.420172 22590 net.cpp:131] Top shape: 50 256 28 28 (10035200)
I0315 14:15:50.420176 22590 net.cpp:131] Top shape: 50 256 28 28 (10035200)
I0315 14:15:50.420181 22590 net.cpp:131] Top shape: 50 256 28 28 (10035200)
I0315 14:15:50.420188 22590 net.cpp:131] Top shape: 50 256 28 28 (10035200)
I0315 14:15:50.420192 22590 net.cpp:139] Memory required for data: 1369805600
I0315 14:15:50.420194 22590 layer_factory.hpp:77] Creating layer inception_3b/1x1
I0315 14:15:50.420202 22590 net.cpp:86] Creating Layer inception_3b/1x1
I0315 14:15:50.420205 22590 net.cpp:408] inception_3b/1x1 <- inception_3a/output_inception_3a/output_0_split_0
I0315 14:15:50.420210 22590 net.cpp:382] inception_3b/1x1 -> inception_3b/1x1
I0315 14:15:50.420526 22590 net.cpp:124] Setting up inception_3b/1x1
I0315 14:15:50.420533 22590 net.cpp:131] Top shape: 50 128 28 28 (5017600)
I0315 14:15:50.420536 22590 net.cpp:139] Memory required for data: 1389876000
I0315 14:15:50.420542 22590 layer_factory.hpp:77] Creating layer inception_3b/relu_1x1
I0315 14:15:50.420547 22590 net.cpp:86] Creating Layer inception_3b/relu_1x1
I0315 14:15:50.420550 22590 net.cpp:408] inception_3b/relu_1x1 <- inception_3b/1x1
I0315 14:15:50.420554 22590 net.cpp:369] inception_3b/relu_1x1 -> inception_3b/1x1 (in-place)
I0315 14:15:50.420559 22590 net.cpp:124] Setting up inception_3b/relu_1x1
I0315 14:15:50.420563 22590 net.cpp:131] Top shape: 50 128 28 28 (5017600)
I0315 14:15:50.420567 22590 net.cpp:139] Memory required for data: 1409946400
I0315 14:15:50.420569 22590 layer_factory.hpp:77] Creating layer inception_3b/3x3_reduce
I0315 14:15:50.420577 22590 net.cpp:86] Creating Layer inception_3b/3x3_reduce
I0315 14:15:50.420579 22590 net.cpp:408] inception_3b/3x3_reduce <- inception_3a/output_inception_3a/output_0_split_1
I0315 14:15:50.420585 22590 net.cpp:382] inception_3b/3x3_reduce -> inception_3b/3x3_reduce
I0315 14:15:50.420900 22590 net.cpp:124] Setting up inception_3b/3x3_reduce
I0315 14:15:50.420907 22590 net.cpp:131] Top shape: 50 128 28 28 (5017600)
I0315 14:15:50.420910 22590 net.cpp:139] Memory required for data: 1430016800
I0315 14:15:50.420917 22590 layer_factory.hpp:77] Creating layer inception_3b/relu_3x3_reduce
I0315 14:15:50.420922 22590 net.cpp:86] Creating Layer inception_3b/relu_3x3_reduce
I0315 14:15:50.420924 22590 net.cpp:408] inception_3b/relu_3x3_reduce <- inception_3b/3x3_reduce
I0315 14:15:50.420928 22590 net.cpp:369] inception_3b/relu_3x3_reduce -> inception_3b/3x3_reduce (in-place)
I0315 14:15:50.420934 22590 net.cpp:124] Setting up inception_3b/relu_3x3_reduce
I0315 14:15:50.420938 22590 net.cpp:131] Top shape: 50 128 28 28 (5017600)
I0315 14:15:50.420941 22590 net.cpp:139] Memory required for data: 1450087200
I0315 14:15:50.420944 22590 layer_factory.hpp:77] Creating layer inception_3b/3x3
I0315 14:15:50.420955 22590 net.cpp:86] Creating Layer inception_3b/3x3
I0315 14:15:50.420959 22590 net.cpp:408] inception_3b/3x3 <- inception_3b/3x3_reduce
I0315 14:15:50.420964 22590 net.cpp:382] inception_3b/3x3 -> inception_3b/3x3
I0315 14:15:50.423003 22590 net.cpp:124] Setting up inception_3b/3x3
I0315 14:15:50.423017 22590 net.cpp:131] Top shape: 50 192 28 28 (7526400)
I0315 14:15:50.423020 22590 net.cpp:139] Memory required for data: 1480192800
I0315 14:15:50.423027 22590 layer_factory.hpp:77] Creating layer inception_3b/relu_3x3
I0315 14:15:50.423032 22590 net.cpp:86] Creating Layer inception_3b/relu_3x3
I0315 14:15:50.423038 22590 net.cpp:408] inception_3b/relu_3x3 <- inception_3b/3x3
I0315 14:15:50.423043 22590 net.cpp:369] inception_3b/relu_3x3 -> inception_3b/3x3 (in-place)
I0315 14:15:50.423048 22590 net.cpp:124] Setting up inception_3b/relu_3x3
I0315 14:15:50.423053 22590 net.cpp:131] Top shape: 50 192 28 28 (7526400)
I0315 14:15:50.423059 22590 net.cpp:139] Memory required for data: 1510298400
I0315 14:15:50.423063 22590 layer_factory.hpp:77] Creating layer inception_3b/5x5_reduce
I0315 14:15:50.423070 22590 net.cpp:86] Creating Layer inception_3b/5x5_reduce
I0315 14:15:50.423074 22590 net.cpp:408] inception_3b/5x5_reduce <- inception_3a/output_inception_3a/output_0_split_2
I0315 14:15:50.423080 22590 net.cpp:382] inception_3b/5x5_reduce -> inception_3b/5x5_reduce
I0315 14:15:50.423287 22590 net.cpp:124] Setting up inception_3b/5x5_reduce
I0315 14:15:50.423295 22590 net.cpp:131] Top shape: 50 32 28 28 (1254400)
I0315 14:15:50.423302 22590 net.cpp:139] Memory required for data: 1515316000
I0315 14:15:50.423308 22590 layer_factory.hpp:77] Creating layer inception_3b/relu_5x5_reduce
I0315 14:15:50.423313 22590 net.cpp:86] Creating Layer inception_3b/relu_5x5_reduce
I0315 14:15:50.423317 22590 net.cpp:408] inception_3b/relu_5x5_reduce <- inception_3b/5x5_reduce
I0315 14:15:50.423321 22590 net.cpp:369] inception_3b/relu_5x5_reduce -> inception_3b/5x5_reduce (in-place)
I0315 14:15:50.423327 22590 net.cpp:124] Setting up inception_3b/relu_5x5_reduce
I0315 14:15:50.423331 22590 net.cpp:131] Top shape: 50 32 28 28 (1254400)
I0315 14:15:50.423334 22590 net.cpp:139] Memory required for data: 1520333600
I0315 14:15:50.423337 22590 layer_factory.hpp:77] Creating layer inception_3b/5x5
I0315 14:15:50.423344 22590 net.cpp:86] Creating Layer inception_3b/5x5
I0315 14:15:50.423347 22590 net.cpp:408] inception_3b/5x5 <- inception_3b/5x5_reduce
I0315 14:15:50.423352 22590 net.cpp:382] inception_3b/5x5 -> inception_3b/5x5
I0315 14:15:50.423894 22590 net.cpp:124] Setting up inception_3b/5x5
I0315 14:15:50.423902 22590 net.cpp:131] Top shape: 50 96 28 28 (3763200)
I0315 14:15:50.423905 22590 net.cpp:139] Memory required for data: 1535386400
I0315 14:15:50.423912 22590 layer_factory.hpp:77] Creating layer inception_3b/relu_5x5
I0315 14:15:50.423916 22590 net.cpp:86] Creating Layer inception_3b/relu_5x5
I0315 14:15:50.423920 22590 net.cpp:408] inception_3b/relu_5x5 <- inception_3b/5x5
I0315 14:15:50.423924 22590 net.cpp:369] inception_3b/relu_5x5 -> inception_3b/5x5 (in-place)
I0315 14:15:50.423929 22590 net.cpp:124] Setting up inception_3b/relu_5x5
I0315 14:15:50.423933 22590 net.cpp:131] Top shape: 50 96 28 28 (3763200)
I0315 14:15:50.423938 22590 net.cpp:139] Memory required for data: 1550439200
I0315 14:15:50.423939 22590 layer_factory.hpp:77] Creating layer inception_3b/pool
I0315 14:15:50.423945 22590 net.cpp:86] Creating Layer inception_3b/pool
I0315 14:15:50.423949 22590 net.cpp:408] inception_3b/pool <- inception_3a/output_inception_3a/output_0_split_3
I0315 14:15:50.423954 22590 net.cpp:382] inception_3b/pool -> inception_3b/pool
I0315 14:15:50.423980 22590 net.cpp:124] Setting up inception_3b/pool
I0315 14:15:50.423986 22590 net.cpp:131] Top shape: 50 256 28 28 (10035200)
I0315 14:15:50.423988 22590 net.cpp:139] Memory required for data: 1590580000
I0315 14:15:50.423992 22590 layer_factory.hpp:77] Creating layer inception_3b/pool_proj
I0315 14:15:50.424000 22590 net.cpp:86] Creating Layer inception_3b/pool_proj
I0315 14:15:50.424002 22590 net.cpp:408] inception_3b/pool_proj <- inception_3b/pool
I0315 14:15:50.424007 22590 net.cpp:382] inception_3b/pool_proj -> inception_3b/pool_proj
I0315 14:15:50.424250 22590 net.cpp:124] Setting up inception_3b/pool_proj
I0315 14:15:50.424257 22590 net.cpp:131] Top shape: 50 64 28 28 (2508800)
I0315 14:15:50.424259 22590 net.cpp:139] Memory required for data: 1600615200
I0315 14:15:50.424264 22590 layer_factory.hpp:77] Creating layer inception_3b/relu_pool_proj
I0315 14:15:50.424270 22590 net.cpp:86] Creating Layer inception_3b/relu_pool_proj
I0315 14:15:50.424274 22590 net.cpp:408] inception_3b/relu_pool_proj <- inception_3b/pool_proj
I0315 14:15:50.424278 22590 net.cpp:369] inception_3b/relu_pool_proj -> inception_3b/pool_proj (in-place)
I0315 14:15:50.424283 22590 net.cpp:124] Setting up inception_3b/relu_pool_proj
I0315 14:15:50.424288 22590 net.cpp:131] Top shape: 50 64 28 28 (2508800)
I0315 14:15:50.424294 22590 net.cpp:139] Memory required for data: 1610650400
I0315 14:15:50.424298 22590 layer_factory.hpp:77] Creating layer inception_3b/output
I0315 14:15:50.424302 22590 net.cpp:86] Creating Layer inception_3b/output
I0315 14:15:50.424306 22590 net.cpp:408] inception_3b/output <- inception_3b/1x1
I0315 14:15:50.424309 22590 net.cpp:408] inception_3b/output <- inception_3b/3x3
I0315 14:15:50.424314 22590 net.cpp:408] inception_3b/output <- inception_3b/5x5
I0315 14:15:50.424316 22590 net.cpp:408] inception_3b/output <- inception_3b/pool_proj
I0315 14:15:50.424325 22590 net.cpp:382] inception_3b/output -> inception_3b/output
I0315 14:15:50.424345 22590 net.cpp:124] Setting up inception_3b/output
I0315 14:15:50.424350 22590 net.cpp:131] Top shape: 50 480 28 28 (18816000)
I0315 14:15:50.424352 22590 net.cpp:139] Memory required for data: 1685914400
I0315 14:15:50.424356 22590 layer_factory.hpp:77] Creating layer pool3/3x3_s2
I0315 14:15:50.424361 22590 net.cpp:86] Creating Layer pool3/3x3_s2
I0315 14:15:50.424365 22590 net.cpp:408] pool3/3x3_s2 <- inception_3b/output
I0315 14:15:50.424370 22590 net.cpp:382] pool3/3x3_s2 -> pool3/3x3_s2
I0315 14:15:50.424394 22590 net.cpp:124] Setting up pool3/3x3_s2
I0315 14:15:50.424399 22590 net.cpp:131] Top shape: 50 480 14 14 (4704000)
I0315 14:15:50.424402 22590 net.cpp:139] Memory required for data: 1704730400
I0315 14:15:50.424404 22590 layer_factory.hpp:77] Creating layer pool3/3x3_s2_pool3/3x3_s2_0_split
I0315 14:15:50.424410 22590 net.cpp:86] Creating Layer pool3/3x3_s2_pool3/3x3_s2_0_split
I0315 14:15:50.424413 22590 net.cpp:408] pool3/3x3_s2_pool3/3x3_s2_0_split <- pool3/3x3_s2
I0315 14:15:50.424418 22590 net.cpp:382] pool3/3x3_s2_pool3/3x3_s2_0_split -> pool3/3x3_s2_pool3/3x3_s2_0_split_0
I0315 14:15:50.424424 22590 net.cpp:382] pool3/3x3_s2_pool3/3x3_s2_0_split -> pool3/3x3_s2_pool3/3x3_s2_0_split_1
I0315 14:15:50.424430 22590 net.cpp:382] pool3/3x3_s2_pool3/3x3_s2_0_split -> pool3/3x3_s2_pool3/3x3_s2_0_split_2
I0315 14:15:50.424435 22590 net.cpp:382] pool3/3x3_s2_pool3/3x3_s2_0_split -> pool3/3x3_s2_pool3/3x3_s2_0_split_3
I0315 14:15:50.424474 22590 net.cpp:124] Setting up pool3/3x3_s2_pool3/3x3_s2_0_split
I0315 14:15:50.424479 22590 net.cpp:131] Top shape: 50 480 14 14 (4704000)
I0315 14:15:50.424484 22590 net.cpp:131] Top shape: 50 480 14 14 (4704000)
I0315 14:15:50.424487 22590 net.cpp:131] Top shape: 50 480 14 14 (4704000)
I0315 14:15:50.424491 22590 net.cpp:131] Top shape: 50 480 14 14 (4704000)
I0315 14:15:50.424494 22590 net.cpp:139] Memory required for data: 1779994400
I0315 14:15:50.424497 22590 layer_factory.hpp:77] Creating layer inception_4a/1x1
I0315 14:15:50.424504 22590 net.cpp:86] Creating Layer inception_4a/1x1
I0315 14:15:50.424506 22590 net.cpp:408] inception_4a/1x1 <- pool3/3x3_s2_pool3/3x3_s2_0_split_0
I0315 14:15:50.424511 22590 net.cpp:382] inception_4a/1x1 -> inception_4a/1x1
I0315 14:15:50.425122 22590 net.cpp:124] Setting up inception_4a/1x1
I0315 14:15:50.425128 22590 net.cpp:131] Top shape: 50 192 14 14 (1881600)
I0315 14:15:50.425130 22590 net.cpp:139] Memory required for data: 1787520800
I0315 14:15:50.425137 22590 layer_factory.hpp:77] Creating layer inception_4a/relu_1x1
I0315 14:15:50.425142 22590 net.cpp:86] Creating Layer inception_4a/relu_1x1
I0315 14:15:50.425145 22590 net.cpp:408] inception_4a/relu_1x1 <- inception_4a/1x1
I0315 14:15:50.425149 22590 net.cpp:369] inception_4a/relu_1x1 -> inception_4a/1x1 (in-place)
I0315 14:15:50.425154 22590 net.cpp:124] Setting up inception_4a/relu_1x1
I0315 14:15:50.425159 22590 net.cpp:131] Top shape: 50 192 14 14 (1881600)
I0315 14:15:50.425161 22590 net.cpp:139] Memory required for data: 1795047200
I0315 14:15:50.425164 22590 layer_factory.hpp:77] Creating layer inception_4a/3x3_reduce
I0315 14:15:50.425170 22590 net.cpp:86] Creating Layer inception_4a/3x3_reduce
I0315 14:15:50.425174 22590 net.cpp:408] inception_4a/3x3_reduce <- pool3/3x3_s2_pool3/3x3_s2_0_split_1
I0315 14:15:50.425179 22590 net.cpp:382] inception_4a/3x3_reduce -> inception_4a/3x3_reduce
I0315 14:15:50.425575 22590 net.cpp:124] Setting up inception_4a/3x3_reduce
I0315 14:15:50.425585 22590 net.cpp:131] Top shape: 50 96 14 14 (940800)
I0315 14:15:50.425588 22590 net.cpp:139] Memory required for data: 1798810400
I0315 14:15:50.425597 22590 layer_factory.hpp:77] Creating layer inception_4a/relu_3x3_reduce
I0315 14:15:50.425602 22590 net.cpp:86] Creating Layer inception_4a/relu_3x3_reduce
I0315 14:15:50.425606 22590 net.cpp:408] inception_4a/relu_3x3_reduce <- inception_4a/3x3_reduce
I0315 14:15:50.425611 22590 net.cpp:369] inception_4a/relu_3x3_reduce -> inception_4a/3x3_reduce (in-place)
I0315 14:15:50.425621 22590 net.cpp:124] Setting up inception_4a/relu_3x3_reduce
I0315 14:15:50.425624 22590 net.cpp:131] Top shape: 50 96 14 14 (940800)
I0315 14:15:50.425627 22590 net.cpp:139] Memory required for data: 1802573600
I0315 14:15:50.425631 22590 layer_factory.hpp:77] Creating layer inception_4a/3x3
I0315 14:15:50.425638 22590 net.cpp:86] Creating Layer inception_4a/3x3
I0315 14:15:50.425642 22590 net.cpp:408] inception_4a/3x3 <- inception_4a/3x3_reduce
I0315 14:15:50.425647 22590 net.cpp:382] inception_4a/3x3 -> inception_4a/3x3
I0315 14:15:50.427398 22590 net.cpp:124] Setting up inception_4a/3x3
I0315 14:15:50.427412 22590 net.cpp:131] Top shape: 50 208 14 14 (2038400)
I0315 14:15:50.427414 22590 net.cpp:139] Memory required for data: 1810727200
I0315 14:15:50.427420 22590 layer_factory.hpp:77] Creating layer inception_4a/relu_3x3
I0315 14:15:50.427428 22590 net.cpp:86] Creating Layer inception_4a/relu_3x3
I0315 14:15:50.427430 22590 net.cpp:408] inception_4a/relu_3x3 <- inception_4a/3x3
I0315 14:15:50.427435 22590 net.cpp:369] inception_4a/relu_3x3 -> inception_4a/3x3 (in-place)
I0315 14:15:50.427441 22590 net.cpp:124] Setting up inception_4a/relu_3x3
I0315 14:15:50.427446 22590 net.cpp:131] Top shape: 50 208 14 14 (2038400)
I0315 14:15:50.427449 22590 net.cpp:139] Memory required for data: 1818880800
I0315 14:15:50.427451 22590 layer_factory.hpp:77] Creating layer inception_4a/5x5_reduce
I0315 14:15:50.427459 22590 net.cpp:86] Creating Layer inception_4a/5x5_reduce
I0315 14:15:50.427464 22590 net.cpp:408] inception_4a/5x5_reduce <- pool3/3x3_s2_pool3/3x3_s2_0_split_2
I0315 14:15:50.427469 22590 net.cpp:382] inception_4a/5x5_reduce -> inception_4a/5x5_reduce
I0315 14:15:50.427675 22590 net.cpp:124] Setting up inception_4a/5x5_reduce
I0315 14:15:50.427682 22590 net.cpp:131] Top shape: 50 16 14 14 (156800)
I0315 14:15:50.427685 22590 net.cpp:139] Memory required for data: 1819508000
I0315 14:15:50.427690 22590 layer_factory.hpp:77] Creating layer inception_4a/relu_5x5_reduce
I0315 14:15:50.427695 22590 net.cpp:86] Creating Layer inception_4a/relu_5x5_reduce
I0315 14:15:50.427700 22590 net.cpp:408] inception_4a/relu_5x5_reduce <- inception_4a/5x5_reduce
I0315 14:15:50.427705 22590 net.cpp:369] inception_4a/relu_5x5_reduce -> inception_4a/5x5_reduce (in-place)
I0315 14:15:50.427709 22590 net.cpp:124] Setting up inception_4a/relu_5x5_reduce
I0315 14:15:50.427713 22590 net.cpp:131] Top shape: 50 16 14 14 (156800)
I0315 14:15:50.427716 22590 net.cpp:139] Memory required for data: 1820135200
I0315 14:15:50.427719 22590 layer_factory.hpp:77] Creating layer inception_4a/5x5
I0315 14:15:50.427726 22590 net.cpp:86] Creating Layer inception_4a/5x5
I0315 14:15:50.427729 22590 net.cpp:408] inception_4a/5x5 <- inception_4a/5x5_reduce
I0315 14:15:50.427734 22590 net.cpp:382] inception_4a/5x5 -> inception_4a/5x5
I0315 14:15:50.427994 22590 net.cpp:124] Setting up inception_4a/5x5
I0315 14:15:50.428000 22590 net.cpp:131] Top shape: 50 48 14 14 (470400)
I0315 14:15:50.428004 22590 net.cpp:139] Memory required for data: 1822016800
I0315 14:15:50.428009 22590 layer_factory.hpp:77] Creating layer inception_4a/relu_5x5
I0315 14:15:50.428014 22590 net.cpp:86] Creating Layer inception_4a/relu_5x5
I0315 14:15:50.428017 22590 net.cpp:408] inception_4a/relu_5x5 <- inception_4a/5x5
I0315 14:15:50.428021 22590 net.cpp:369] inception_4a/relu_5x5 -> inception_4a/5x5 (in-place)
I0315 14:15:50.428026 22590 net.cpp:124] Setting up inception_4a/relu_5x5
I0315 14:15:50.428035 22590 net.cpp:131] Top shape: 50 48 14 14 (470400)
I0315 14:15:50.428037 22590 net.cpp:139] Memory required for data: 1823898400
I0315 14:15:50.428040 22590 layer_factory.hpp:77] Creating layer inception_4a/pool
I0315 14:15:50.428046 22590 net.cpp:86] Creating Layer inception_4a/pool
I0315 14:15:50.428050 22590 net.cpp:408] inception_4a/pool <- pool3/3x3_s2_pool3/3x3_s2_0_split_3
I0315 14:15:50.428055 22590 net.cpp:382] inception_4a/pool -> inception_4a/pool
I0315 14:15:50.428082 22590 net.cpp:124] Setting up inception_4a/pool
I0315 14:15:50.428088 22590 net.cpp:131] Top shape: 50 480 14 14 (4704000)
I0315 14:15:50.428097 22590 net.cpp:139] Memory required for data: 1842714400
I0315 14:15:50.428100 22590 layer_factory.hpp:77] Creating layer inception_4a/pool_proj
I0315 14:15:50.428107 22590 net.cpp:86] Creating Layer inception_4a/pool_proj
I0315 14:15:50.428110 22590 net.cpp:408] inception_4a/pool_proj <- inception_4a/pool
I0315 14:15:50.428117 22590 net.cpp:382] inception_4a/pool_proj -> inception_4a/pool_proj
I0315 14:15:50.428431 22590 net.cpp:124] Setting up inception_4a/pool_proj
I0315 14:15:50.428437 22590 net.cpp:131] Top shape: 50 64 14 14 (627200)
I0315 14:15:50.428441 22590 net.cpp:139] Memory required for data: 1845223200
I0315 14:15:50.428447 22590 layer_factory.hpp:77] Creating layer inception_4a/relu_pool_proj
I0315 14:15:50.428452 22590 net.cpp:86] Creating Layer inception_4a/relu_pool_proj
I0315 14:15:50.428454 22590 net.cpp:408] inception_4a/relu_pool_proj <- inception_4a/pool_proj
I0315 14:15:50.428459 22590 net.cpp:369] inception_4a/relu_pool_proj -> inception_4a/pool_proj (in-place)
I0315 14:15:50.428465 22590 net.cpp:124] Setting up inception_4a/relu_pool_proj
I0315 14:15:50.428469 22590 net.cpp:131] Top shape: 50 64 14 14 (627200)
I0315 14:15:50.428472 22590 net.cpp:139] Memory required for data: 1847732000
I0315 14:15:50.428474 22590 layer_factory.hpp:77] Creating layer inception_4a/output
I0315 14:15:50.428480 22590 net.cpp:86] Creating Layer inception_4a/output
I0315 14:15:50.428483 22590 net.cpp:408] inception_4a/output <- inception_4a/1x1
I0315 14:15:50.428488 22590 net.cpp:408] inception_4a/output <- inception_4a/3x3
I0315 14:15:50.428490 22590 net.cpp:408] inception_4a/output <- inception_4a/5x5
I0315 14:15:50.428494 22590 net.cpp:408] inception_4a/output <- inception_4a/pool_proj
I0315 14:15:50.428499 22590 net.cpp:382] inception_4a/output -> inception_4a/output
I0315 14:15:50.428517 22590 net.cpp:124] Setting up inception_4a/output
I0315 14:15:50.428522 22590 net.cpp:131] Top shape: 50 512 14 14 (5017600)
I0315 14:15:50.428525 22590 net.cpp:139] Memory required for data: 1867802400
I0315 14:15:50.428529 22590 layer_factory.hpp:77] Creating layer inception_4a/output_inception_4a/output_0_split
I0315 14:15:50.428534 22590 net.cpp:86] Creating Layer inception_4a/output_inception_4a/output_0_split
I0315 14:15:50.428537 22590 net.cpp:408] inception_4a/output_inception_4a/output_0_split <- inception_4a/output
I0315 14:15:50.428542 22590 net.cpp:382] inception_4a/output_inception_4a/output_0_split -> inception_4a/output_inception_4a/output_0_split_0
I0315 14:15:50.428550 22590 net.cpp:382] inception_4a/output_inception_4a/output_0_split -> inception_4a/output_inception_4a/output_0_split_1
I0315 14:15:50.428555 22590 net.cpp:382] inception_4a/output_inception_4a/output_0_split -> inception_4a/output_inception_4a/output_0_split_2
I0315 14:15:50.428560 22590 net.cpp:382] inception_4a/output_inception_4a/output_0_split -> inception_4a/output_inception_4a/output_0_split_3
I0315 14:15:50.428566 22590 net.cpp:382] inception_4a/output_inception_4a/output_0_split -> inception_4a/output_inception_4a/output_0_split_4
I0315 14:15:50.428614 22590 net.cpp:124] Setting up inception_4a/output_inception_4a/output_0_split
I0315 14:15:50.428619 22590 net.cpp:131] Top shape: 50 512 14 14 (5017600)
I0315 14:15:50.428623 22590 net.cpp:131] Top shape: 50 512 14 14 (5017600)
I0315 14:15:50.428627 22590 net.cpp:131] Top shape: 50 512 14 14 (5017600)
I0315 14:15:50.428632 22590 net.cpp:131] Top shape: 50 512 14 14 (5017600)
I0315 14:15:50.428638 22590 net.cpp:131] Top shape: 50 512 14 14 (5017600)
I0315 14:15:50.428642 22590 net.cpp:139] Memory required for data: 1968154400
I0315 14:15:50.428644 22590 layer_factory.hpp:77] Creating layer loss1/ave_pool
I0315 14:15:50.428649 22590 net.cpp:86] Creating Layer loss1/ave_pool
I0315 14:15:50.428653 22590 net.cpp:408] loss1/ave_pool <- inception_4a/output_inception_4a/output_0_split_0
I0315 14:15:50.428658 22590 net.cpp:382] loss1/ave_pool -> loss1/ave_pool
I0315 14:15:50.428675 22590 net.cpp:124] Setting up loss1/ave_pool
I0315 14:15:50.428684 22590 net.cpp:131] Top shape: 50 512 4 4 (409600)
I0315 14:15:50.428688 22590 net.cpp:139] Memory required for data: 1969792800
I0315 14:15:50.428690 22590 layer_factory.hpp:77] Creating layer loss1/conv
I0315 14:15:50.428699 22590 net.cpp:86] Creating Layer loss1/conv
I0315 14:15:50.428701 22590 net.cpp:408] loss1/conv <- loss1/ave_pool
I0315 14:15:50.428706 22590 net.cpp:382] loss1/conv -> loss1/conv
I0315 14:15:50.429191 22590 net.cpp:124] Setting up loss1/conv
I0315 14:15:50.429198 22590 net.cpp:131] Top shape: 50 128 4 4 (102400)
I0315 14:15:50.429201 22590 net.cpp:139] Memory required for data: 1970202400
I0315 14:15:50.429208 22590 layer_factory.hpp:77] Creating layer loss1/relu_conv
I0315 14:15:50.429213 22590 net.cpp:86] Creating Layer loss1/relu_conv
I0315 14:15:50.429216 22590 net.cpp:408] loss1/relu_conv <- loss1/conv
I0315 14:15:50.429220 22590 net.cpp:369] loss1/relu_conv -> loss1/conv (in-place)
I0315 14:15:50.429225 22590 net.cpp:124] Setting up loss1/relu_conv
I0315 14:15:50.429229 22590 net.cpp:131] Top shape: 50 128 4 4 (102400)
I0315 14:15:50.429232 22590 net.cpp:139] Memory required for data: 1970612000
I0315 14:15:50.429235 22590 layer_factory.hpp:77] Creating layer loss1/fc
I0315 14:15:50.429241 22590 net.cpp:86] Creating Layer loss1/fc
I0315 14:15:50.429244 22590 net.cpp:408] loss1/fc <- loss1/conv
I0315 14:15:50.429250 22590 net.cpp:382] loss1/fc -> loss1/fc
I0315 14:15:50.442081 22590 net.cpp:124] Setting up loss1/fc
I0315 14:15:50.442106 22590 net.cpp:131] Top shape: 50 1024 (51200)
I0315 14:15:50.442109 22590 net.cpp:139] Memory required for data: 1970816800
I0315 14:15:50.442118 22590 layer_factory.hpp:77] Creating layer loss1/relu_fc
I0315 14:15:50.442126 22590 net.cpp:86] Creating Layer loss1/relu_fc
I0315 14:15:50.442131 22590 net.cpp:408] loss1/relu_fc <- loss1/fc
I0315 14:15:50.442136 22590 net.cpp:369] loss1/relu_fc -> loss1/fc (in-place)
I0315 14:15:50.442142 22590 net.cpp:124] Setting up loss1/relu_fc
I0315 14:15:50.442147 22590 net.cpp:131] Top shape: 50 1024 (51200)
I0315 14:15:50.442148 22590 net.cpp:139] Memory required for data: 1971021600
I0315 14:15:50.442152 22590 layer_factory.hpp:77] Creating layer loss1/drop_fc
I0315 14:15:50.442169 22590 net.cpp:86] Creating Layer loss1/drop_fc
I0315 14:15:50.442173 22590 net.cpp:408] loss1/drop_fc <- loss1/fc
I0315 14:15:50.442178 22590 net.cpp:369] loss1/drop_fc -> loss1/fc (in-place)
I0315 14:15:50.442204 22590 net.cpp:124] Setting up loss1/drop_fc
I0315 14:15:50.442209 22590 net.cpp:131] Top shape: 50 1024 (51200)
I0315 14:15:50.442212 22590 net.cpp:139] Memory required for data: 1971226400
I0315 14:15:50.442216 22590 layer_factory.hpp:77] Creating layer loss1/classifier-bird
I0315 14:15:50.442224 22590 net.cpp:86] Creating Layer loss1/classifier-bird
I0315 14:15:50.442226 22590 net.cpp:408] loss1/classifier-bird <- loss1/fc
I0315 14:15:50.442232 22590 net.cpp:382] loss1/classifier-bird -> loss1/classifier
I0315 14:15:50.442328 22590 net.cpp:124] Setting up loss1/classifier-bird
I0315 14:15:50.442334 22590 net.cpp:131] Top shape: 50 4 (200)
I0315 14:15:50.442337 22590 net.cpp:139] Memory required for data: 1971227200
I0315 14:15:50.442342 22590 layer_factory.hpp:77] Creating layer loss1/loss
I0315 14:15:50.442349 22590 net.cpp:86] Creating Layer loss1/loss
I0315 14:15:50.442353 22590 net.cpp:408] loss1/loss <- loss1/classifier
I0315 14:15:50.442358 22590 net.cpp:408] loss1/loss <- label_data_1_split_0
I0315 14:15:50.442363 22590 net.cpp:382] loss1/loss -> loss1/loss1
I0315 14:15:50.442376 22590 layer_factory.hpp:77] Creating layer loss1/loss
I0315 14:15:50.442451 22590 net.cpp:124] Setting up loss1/loss
I0315 14:15:50.442456 22590 net.cpp:131] Top shape: (1)
I0315 14:15:50.442458 22590 net.cpp:134]     with loss weight 0.3
I0315 14:15:50.442484 22590 net.cpp:139] Memory required for data: 1971227204
I0315 14:15:50.442488 22590 layer_factory.hpp:77] Creating layer inception_4b/1x1
I0315 14:15:50.442497 22590 net.cpp:86] Creating Layer inception_4b/1x1
I0315 14:15:50.442502 22590 net.cpp:408] inception_4b/1x1 <- inception_4a/output_inception_4a/output_0_split_1
I0315 14:15:50.442515 22590 net.cpp:382] inception_4b/1x1 -> inception_4b/1x1
I0315 14:15:50.443112 22590 net.cpp:124] Setting up inception_4b/1x1
I0315 14:15:50.443121 22590 net.cpp:131] Top shape: 50 160 14 14 (1568000)
I0315 14:15:50.443125 22590 net.cpp:139] Memory required for data: 1977499204
I0315 14:15:50.443130 22590 layer_factory.hpp:77] Creating layer inception_4b/relu_1x1
I0315 14:15:50.443136 22590 net.cpp:86] Creating Layer inception_4b/relu_1x1
I0315 14:15:50.443140 22590 net.cpp:408] inception_4b/relu_1x1 <- inception_4b/1x1
I0315 14:15:50.443145 22590 net.cpp:369] inception_4b/relu_1x1 -> inception_4b/1x1 (in-place)
I0315 14:15:50.443150 22590 net.cpp:124] Setting up inception_4b/relu_1x1
I0315 14:15:50.443155 22590 net.cpp:131] Top shape: 50 160 14 14 (1568000)
I0315 14:15:50.443157 22590 net.cpp:139] Memory required for data: 1983771204
I0315 14:15:50.443161 22590 layer_factory.hpp:77] Creating layer inception_4b/3x3_reduce
I0315 14:15:50.443167 22590 net.cpp:86] Creating Layer inception_4b/3x3_reduce
I0315 14:15:50.443171 22590 net.cpp:408] inception_4b/3x3_reduce <- inception_4a/output_inception_4a/output_0_split_2
I0315 14:15:50.443176 22590 net.cpp:382] inception_4b/3x3_reduce -> inception_4b/3x3_reduce
I0315 14:15:50.443634 22590 net.cpp:124] Setting up inception_4b/3x3_reduce
I0315 14:15:50.443641 22590 net.cpp:131] Top shape: 50 112 14 14 (1097600)
I0315 14:15:50.443645 22590 net.cpp:139] Memory required for data: 1988161604
I0315 14:15:50.443650 22590 layer_factory.hpp:77] Creating layer inception_4b/relu_3x3_reduce
I0315 14:15:50.443655 22590 net.cpp:86] Creating Layer inception_4b/relu_3x3_reduce
I0315 14:15:50.443660 22590 net.cpp:408] inception_4b/relu_3x3_reduce <- inception_4b/3x3_reduce
I0315 14:15:50.443663 22590 net.cpp:369] inception_4b/relu_3x3_reduce -> inception_4b/3x3_reduce (in-place)
I0315 14:15:50.443670 22590 net.cpp:124] Setting up inception_4b/relu_3x3_reduce
I0315 14:15:50.443673 22590 net.cpp:131] Top shape: 50 112 14 14 (1097600)
I0315 14:15:50.443676 22590 net.cpp:139] Memory required for data: 1992552004
I0315 14:15:50.443680 22590 layer_factory.hpp:77] Creating layer inception_4b/3x3
I0315 14:15:50.443686 22590 net.cpp:86] Creating Layer inception_4b/3x3
I0315 14:15:50.443689 22590 net.cpp:408] inception_4b/3x3 <- inception_4b/3x3_reduce
I0315 14:15:50.443694 22590 net.cpp:382] inception_4b/3x3 -> inception_4b/3x3
I0315 14:15:50.444984 22590 net.cpp:124] Setting up inception_4b/3x3
I0315 14:15:50.444993 22590 net.cpp:131] Top shape: 50 224 14 14 (2195200)
I0315 14:15:50.444995 22590 net.cpp:139] Memory required for data: 2001332804
I0315 14:15:50.445000 22590 layer_factory.hpp:77] Creating layer inception_4b/relu_3x3
I0315 14:15:50.445005 22590 net.cpp:86] Creating Layer inception_4b/relu_3x3
I0315 14:15:50.445009 22590 net.cpp:408] inception_4b/relu_3x3 <- inception_4b/3x3
I0315 14:15:50.445013 22590 net.cpp:369] inception_4b/relu_3x3 -> inception_4b/3x3 (in-place)
I0315 14:15:50.445019 22590 net.cpp:124] Setting up inception_4b/relu_3x3
I0315 14:15:50.445022 22590 net.cpp:131] Top shape: 50 224 14 14 (2195200)
I0315 14:15:50.445026 22590 net.cpp:139] Memory required for data: 2010113604
I0315 14:15:50.445029 22590 layer_factory.hpp:77] Creating layer inception_4b/5x5_reduce
I0315 14:15:50.445035 22590 net.cpp:86] Creating Layer inception_4b/5x5_reduce
I0315 14:15:50.445039 22590 net.cpp:408] inception_4b/5x5_reduce <- inception_4a/output_inception_4a/output_0_split_3
I0315 14:15:50.445047 22590 net.cpp:382] inception_4b/5x5_reduce -> inception_4b/5x5_reduce
I0315 14:15:50.445276 22590 net.cpp:124] Setting up inception_4b/5x5_reduce
I0315 14:15:50.445281 22590 net.cpp:131] Top shape: 50 24 14 14 (235200)
I0315 14:15:50.445284 22590 net.cpp:139] Memory required for data: 2011054404
I0315 14:15:50.445291 22590 layer_factory.hpp:77] Creating layer inception_4b/relu_5x5_reduce
I0315 14:15:50.445296 22590 net.cpp:86] Creating Layer inception_4b/relu_5x5_reduce
I0315 14:15:50.445299 22590 net.cpp:408] inception_4b/relu_5x5_reduce <- inception_4b/5x5_reduce
I0315 14:15:50.445309 22590 net.cpp:369] inception_4b/relu_5x5_reduce -> inception_4b/5x5_reduce (in-place)
I0315 14:15:50.445317 22590 net.cpp:124] Setting up inception_4b/relu_5x5_reduce
I0315 14:15:50.445322 22590 net.cpp:131] Top shape: 50 24 14 14 (235200)
I0315 14:15:50.445324 22590 net.cpp:139] Memory required for data: 2011995204
I0315 14:15:50.445327 22590 layer_factory.hpp:77] Creating layer inception_4b/5x5
I0315 14:15:50.445334 22590 net.cpp:86] Creating Layer inception_4b/5x5
I0315 14:15:50.445338 22590 net.cpp:408] inception_4b/5x5 <- inception_4b/5x5_reduce
I0315 14:15:50.445343 22590 net.cpp:382] inception_4b/5x5 -> inception_4b/5x5
I0315 14:15:50.445701 22590 net.cpp:124] Setting up inception_4b/5x5
I0315 14:15:50.445708 22590 net.cpp:131] Top shape: 50 64 14 14 (627200)
I0315 14:15:50.445711 22590 net.cpp:139] Memory required for data: 2014504004
I0315 14:15:50.445716 22590 layer_factory.hpp:77] Creating layer inception_4b/relu_5x5
I0315 14:15:50.445721 22590 net.cpp:86] Creating Layer inception_4b/relu_5x5
I0315 14:15:50.445725 22590 net.cpp:408] inception_4b/relu_5x5 <- inception_4b/5x5
I0315 14:15:50.445730 22590 net.cpp:369] inception_4b/relu_5x5 -> inception_4b/5x5 (in-place)
I0315 14:15:50.445735 22590 net.cpp:124] Setting up inception_4b/relu_5x5
I0315 14:15:50.445739 22590 net.cpp:131] Top shape: 50 64 14 14 (627200)
I0315 14:15:50.445742 22590 net.cpp:139] Memory required for data: 2017012804
I0315 14:15:50.445745 22590 layer_factory.hpp:77] Creating layer inception_4b/pool
I0315 14:15:50.445750 22590 net.cpp:86] Creating Layer inception_4b/pool
I0315 14:15:50.445755 22590 net.cpp:408] inception_4b/pool <- inception_4a/output_inception_4a/output_0_split_4
I0315 14:15:50.445760 22590 net.cpp:382] inception_4b/pool -> inception_4b/pool
I0315 14:15:50.445798 22590 net.cpp:124] Setting up inception_4b/pool
I0315 14:15:50.445804 22590 net.cpp:131] Top shape: 50 512 14 14 (5017600)
I0315 14:15:50.445807 22590 net.cpp:139] Memory required for data: 2037083204
I0315 14:15:50.445811 22590 layer_factory.hpp:77] Creating layer inception_4b/pool_proj
I0315 14:15:50.445817 22590 net.cpp:86] Creating Layer inception_4b/pool_proj
I0315 14:15:50.445822 22590 net.cpp:408] inception_4b/pool_proj <- inception_4b/pool
I0315 14:15:50.445827 22590 net.cpp:382] inception_4b/pool_proj -> inception_4b/pool_proj
I0315 14:15:50.446154 22590 net.cpp:124] Setting up inception_4b/pool_proj
I0315 14:15:50.446161 22590 net.cpp:131] Top shape: 50 64 14 14 (627200)
I0315 14:15:50.446164 22590 net.cpp:139] Memory required for data: 2039592004
I0315 14:15:50.446169 22590 layer_factory.hpp:77] Creating layer inception_4b/relu_pool_proj
I0315 14:15:50.446175 22590 net.cpp:86] Creating Layer inception_4b/relu_pool_proj
I0315 14:15:50.446178 22590 net.cpp:408] inception_4b/relu_pool_proj <- inception_4b/pool_proj
I0315 14:15:50.446183 22590 net.cpp:369] inception_4b/relu_pool_proj -> inception_4b/pool_proj (in-place)
I0315 14:15:50.446187 22590 net.cpp:124] Setting up inception_4b/relu_pool_proj
I0315 14:15:50.446192 22590 net.cpp:131] Top shape: 50 64 14 14 (627200)
I0315 14:15:50.446195 22590 net.cpp:139] Memory required for data: 2042100804
I0315 14:15:50.446198 22590 layer_factory.hpp:77] Creating layer inception_4b/output
I0315 14:15:50.446203 22590 net.cpp:86] Creating Layer inception_4b/output
I0315 14:15:50.446208 22590 net.cpp:408] inception_4b/output <- inception_4b/1x1
I0315 14:15:50.446211 22590 net.cpp:408] inception_4b/output <- inception_4b/3x3
I0315 14:15:50.446218 22590 net.cpp:408] inception_4b/output <- inception_4b/5x5
I0315 14:15:50.446221 22590 net.cpp:408] inception_4b/output <- inception_4b/pool_proj
I0315 14:15:50.446226 22590 net.cpp:382] inception_4b/output -> inception_4b/output
I0315 14:15:50.446245 22590 net.cpp:124] Setting up inception_4b/output
I0315 14:15:50.446250 22590 net.cpp:131] Top shape: 50 512 14 14 (5017600)
I0315 14:15:50.446254 22590 net.cpp:139] Memory required for data: 2062171204
I0315 14:15:50.446256 22590 layer_factory.hpp:77] Creating layer inception_4b/output_inception_4b/output_0_split
I0315 14:15:50.446267 22590 net.cpp:86] Creating Layer inception_4b/output_inception_4b/output_0_split
I0315 14:15:50.446270 22590 net.cpp:408] inception_4b/output_inception_4b/output_0_split <- inception_4b/output
I0315 14:15:50.446275 22590 net.cpp:382] inception_4b/output_inception_4b/output_0_split -> inception_4b/output_inception_4b/output_0_split_0
I0315 14:15:50.446282 22590 net.cpp:382] inception_4b/output_inception_4b/output_0_split -> inception_4b/output_inception_4b/output_0_split_1
I0315 14:15:50.446288 22590 net.cpp:382] inception_4b/output_inception_4b/output_0_split -> inception_4b/output_inception_4b/output_0_split_2
I0315 14:15:50.446293 22590 net.cpp:382] inception_4b/output_inception_4b/output_0_split -> inception_4b/output_inception_4b/output_0_split_3
I0315 14:15:50.446334 22590 net.cpp:124] Setting up inception_4b/output_inception_4b/output_0_split
I0315 14:15:50.446341 22590 net.cpp:131] Top shape: 50 512 14 14 (5017600)
I0315 14:15:50.446344 22590 net.cpp:131] Top shape: 50 512 14 14 (5017600)
I0315 14:15:50.446347 22590 net.cpp:131] Top shape: 50 512 14 14 (5017600)
I0315 14:15:50.446352 22590 net.cpp:131] Top shape: 50 512 14 14 (5017600)
I0315 14:15:50.446354 22590 net.cpp:139] Memory required for data: 2142452804
I0315 14:15:50.446357 22590 layer_factory.hpp:77] Creating layer inception_4c/1x1
I0315 14:15:50.446364 22590 net.cpp:86] Creating Layer inception_4c/1x1
I0315 14:15:50.446367 22590 net.cpp:408] inception_4c/1x1 <- inception_4b/output_inception_4b/output_0_split_0
I0315 14:15:50.446373 22590 net.cpp:382] inception_4c/1x1 -> inception_4c/1x1
I0315 14:15:50.446866 22590 net.cpp:124] Setting up inception_4c/1x1
I0315 14:15:50.446874 22590 net.cpp:131] Top shape: 50 128 14 14 (1254400)
I0315 14:15:50.446877 22590 net.cpp:139] Memory required for data: 2147470404
I0315 14:15:50.446882 22590 layer_factory.hpp:77] Creating layer inception_4c/relu_1x1
I0315 14:15:50.446887 22590 net.cpp:86] Creating Layer inception_4c/relu_1x1
I0315 14:15:50.446892 22590 net.cpp:408] inception_4c/relu_1x1 <- inception_4c/1x1
I0315 14:15:50.446895 22590 net.cpp:369] inception_4c/relu_1x1 -> inception_4c/1x1 (in-place)
I0315 14:15:50.446902 22590 net.cpp:124] Setting up inception_4c/relu_1x1
I0315 14:15:50.446905 22590 net.cpp:131] Top shape: 50 128 14 14 (1254400)
I0315 14:15:50.446908 22590 net.cpp:139] Memory required for data: 2152488004
I0315 14:15:50.446910 22590 layer_factory.hpp:77] Creating layer inception_4c/3x3_reduce
I0315 14:15:50.446918 22590 net.cpp:86] Creating Layer inception_4c/3x3_reduce
I0315 14:15:50.446921 22590 net.cpp:408] inception_4c/3x3_reduce <- inception_4b/output_inception_4b/output_0_split_1
I0315 14:15:50.446926 22590 net.cpp:382] inception_4c/3x3_reduce -> inception_4c/3x3_reduce
I0315 14:15:50.447423 22590 net.cpp:124] Setting up inception_4c/3x3_reduce
I0315 14:15:50.447432 22590 net.cpp:131] Top shape: 50 128 14 14 (1254400)
I0315 14:15:50.447434 22590 net.cpp:139] Memory required for data: 2157505604
I0315 14:15:50.447439 22590 layer_factory.hpp:77] Creating layer inception_4c/relu_3x3_reduce
I0315 14:15:50.447443 22590 net.cpp:86] Creating Layer inception_4c/relu_3x3_reduce
I0315 14:15:50.447448 22590 net.cpp:408] inception_4c/relu_3x3_reduce <- inception_4c/3x3_reduce
I0315 14:15:50.447453 22590 net.cpp:369] inception_4c/relu_3x3_reduce -> inception_4c/3x3_reduce (in-place)
I0315 14:15:50.447458 22590 net.cpp:124] Setting up inception_4c/relu_3x3_reduce
I0315 14:15:50.447461 22590 net.cpp:131] Top shape: 50 128 14 14 (1254400)
I0315 14:15:50.447468 22590 net.cpp:139] Memory required for data: 2162523204
I0315 14:15:50.447471 22590 layer_factory.hpp:77] Creating layer inception_4c/3x3
I0315 14:15:50.447477 22590 net.cpp:86] Creating Layer inception_4c/3x3
I0315 14:15:50.447481 22590 net.cpp:408] inception_4c/3x3 <- inception_4c/3x3_reduce
I0315 14:15:50.447486 22590 net.cpp:382] inception_4c/3x3 -> inception_4c/3x3
I0315 14:15:50.449869 22590 net.cpp:124] Setting up inception_4c/3x3
I0315 14:15:50.449882 22590 net.cpp:131] Top shape: 50 256 14 14 (2508800)
I0315 14:15:50.449892 22590 net.cpp:139] Memory required for data: 2172558404
I0315 14:15:50.449908 22590 layer_factory.hpp:77] Creating layer inception_4c/relu_3x3
I0315 14:15:50.449913 22590 net.cpp:86] Creating Layer inception_4c/relu_3x3
I0315 14:15:50.449918 22590 net.cpp:408] inception_4c/relu_3x3 <- inception_4c/3x3
I0315 14:15:50.449923 22590 net.cpp:369] inception_4c/relu_3x3 -> inception_4c/3x3 (in-place)
I0315 14:15:50.449929 22590 net.cpp:124] Setting up inception_4c/relu_3x3
I0315 14:15:50.449934 22590 net.cpp:131] Top shape: 50 256 14 14 (2508800)
I0315 14:15:50.449936 22590 net.cpp:139] Memory required for data: 2182593604
I0315 14:15:50.449939 22590 layer_factory.hpp:77] Creating layer inception_4c/5x5_reduce
I0315 14:15:50.449949 22590 net.cpp:86] Creating Layer inception_4c/5x5_reduce
I0315 14:15:50.449951 22590 net.cpp:408] inception_4c/5x5_reduce <- inception_4b/output_inception_4b/output_0_split_2
I0315 14:15:50.449957 22590 net.cpp:382] inception_4c/5x5_reduce -> inception_4c/5x5_reduce
I0315 14:15:50.450189 22590 net.cpp:124] Setting up inception_4c/5x5_reduce
I0315 14:15:50.450197 22590 net.cpp:131] Top shape: 50 24 14 14 (235200)
I0315 14:15:50.450201 22590 net.cpp:139] Memory required for data: 2183534404
I0315 14:15:50.450206 22590 layer_factory.hpp:77] Creating layer inception_4c/relu_5x5_reduce
I0315 14:15:50.450211 22590 net.cpp:86] Creating Layer inception_4c/relu_5x5_reduce
I0315 14:15:50.450214 22590 net.cpp:408] inception_4c/relu_5x5_reduce <- inception_4c/5x5_reduce
I0315 14:15:50.450219 22590 net.cpp:369] inception_4c/relu_5x5_reduce -> inception_4c/5x5_reduce (in-place)
I0315 14:15:50.450224 22590 net.cpp:124] Setting up inception_4c/relu_5x5_reduce
I0315 14:15:50.450228 22590 net.cpp:131] Top shape: 50 24 14 14 (235200)
I0315 14:15:50.450232 22590 net.cpp:139] Memory required for data: 2184475204
I0315 14:15:50.450234 22590 layer_factory.hpp:77] Creating layer inception_4c/5x5
I0315 14:15:50.450242 22590 net.cpp:86] Creating Layer inception_4c/5x5
I0315 14:15:50.450244 22590 net.cpp:408] inception_4c/5x5 <- inception_4c/5x5_reduce
I0315 14:15:50.450249 22590 net.cpp:382] inception_4c/5x5 -> inception_4c/5x5
I0315 14:15:50.458813 22590 net.cpp:124] Setting up inception_4c/5x5
I0315 14:15:50.458832 22590 net.cpp:131] Top shape: 50 64 14 14 (627200)
I0315 14:15:50.458835 22590 net.cpp:139] Memory required for data: 2186984004
I0315 14:15:50.458843 22590 layer_factory.hpp:77] Creating layer inception_4c/relu_5x5
I0315 14:15:50.458849 22590 net.cpp:86] Creating Layer inception_4c/relu_5x5
I0315 14:15:50.458853 22590 net.cpp:408] inception_4c/relu_5x5 <- inception_4c/5x5
I0315 14:15:50.458859 22590 net.cpp:369] inception_4c/relu_5x5 -> inception_4c/5x5 (in-place)
I0315 14:15:50.458868 22590 net.cpp:124] Setting up inception_4c/relu_5x5
I0315 14:15:50.458873 22590 net.cpp:131] Top shape: 50 64 14 14 (627200)
I0315 14:15:50.458875 22590 net.cpp:139] Memory required for data: 2189492804
I0315 14:15:50.458878 22590 layer_factory.hpp:77] Creating layer inception_4c/pool
I0315 14:15:50.458884 22590 net.cpp:86] Creating Layer inception_4c/pool
I0315 14:15:50.458889 22590 net.cpp:408] inception_4c/pool <- inception_4b/output_inception_4b/output_0_split_3
I0315 14:15:50.458894 22590 net.cpp:382] inception_4c/pool -> inception_4c/pool
I0315 14:15:50.458930 22590 net.cpp:124] Setting up inception_4c/pool
I0315 14:15:50.458936 22590 net.cpp:131] Top shape: 50 512 14 14 (5017600)
I0315 14:15:50.458940 22590 net.cpp:139] Memory required for data: 2209563204
I0315 14:15:50.458947 22590 layer_factory.hpp:77] Creating layer inception_4c/pool_proj
I0315 14:15:50.458956 22590 net.cpp:86] Creating Layer inception_4c/pool_proj
I0315 14:15:50.458961 22590 net.cpp:408] inception_4c/pool_proj <- inception_4c/pool
I0315 14:15:50.458967 22590 net.cpp:382] inception_4c/pool_proj -> inception_4c/pool_proj
I0315 14:15:50.459319 22590 net.cpp:124] Setting up inception_4c/pool_proj
I0315 14:15:50.459327 22590 net.cpp:131] Top shape: 50 64 14 14 (627200)
I0315 14:15:50.459331 22590 net.cpp:139] Memory required for data: 2212072004
I0315 14:15:50.459342 22590 layer_factory.hpp:77] Creating layer inception_4c/relu_pool_proj
I0315 14:15:50.459348 22590 net.cpp:86] Creating Layer inception_4c/relu_pool_proj
I0315 14:15:50.459352 22590 net.cpp:408] inception_4c/relu_pool_proj <- inception_4c/pool_proj
I0315 14:15:50.459357 22590 net.cpp:369] inception_4c/relu_pool_proj -> inception_4c/pool_proj (in-place)
I0315 14:15:50.459362 22590 net.cpp:124] Setting up inception_4c/relu_pool_proj
I0315 14:15:50.459367 22590 net.cpp:131] Top shape: 50 64 14 14 (627200)
I0315 14:15:50.459369 22590 net.cpp:139] Memory required for data: 2214580804
I0315 14:15:50.459372 22590 layer_factory.hpp:77] Creating layer inception_4c/output
I0315 14:15:50.459378 22590 net.cpp:86] Creating Layer inception_4c/output
I0315 14:15:50.459381 22590 net.cpp:408] inception_4c/output <- inception_4c/1x1
I0315 14:15:50.459385 22590 net.cpp:408] inception_4c/output <- inception_4c/3x3
I0315 14:15:50.459389 22590 net.cpp:408] inception_4c/output <- inception_4c/5x5
I0315 14:15:50.459393 22590 net.cpp:408] inception_4c/output <- inception_4c/pool_proj
I0315 14:15:50.459398 22590 net.cpp:382] inception_4c/output -> inception_4c/output
I0315 14:15:50.459417 22590 net.cpp:124] Setting up inception_4c/output
I0315 14:15:50.459422 22590 net.cpp:131] Top shape: 50 512 14 14 (5017600)
I0315 14:15:50.459425 22590 net.cpp:139] Memory required for data: 2234651204
I0315 14:15:50.459429 22590 layer_factory.hpp:77] Creating layer inception_4c/output_inception_4c/output_0_split
I0315 14:15:50.459434 22590 net.cpp:86] Creating Layer inception_4c/output_inception_4c/output_0_split
I0315 14:15:50.459437 22590 net.cpp:408] inception_4c/output_inception_4c/output_0_split <- inception_4c/output
I0315 14:15:50.459442 22590 net.cpp:382] inception_4c/output_inception_4c/output_0_split -> inception_4c/output_inception_4c/output_0_split_0
I0315 14:15:50.459448 22590 net.cpp:382] inception_4c/output_inception_4c/output_0_split -> inception_4c/output_inception_4c/output_0_split_1
I0315 14:15:50.459453 22590 net.cpp:382] inception_4c/output_inception_4c/output_0_split -> inception_4c/output_inception_4c/output_0_split_2
I0315 14:15:50.459460 22590 net.cpp:382] inception_4c/output_inception_4c/output_0_split -> inception_4c/output_inception_4c/output_0_split_3
I0315 14:15:50.459501 22590 net.cpp:124] Setting up inception_4c/output_inception_4c/output_0_split
I0315 14:15:50.459506 22590 net.cpp:131] Top shape: 50 512 14 14 (5017600)
I0315 14:15:50.459511 22590 net.cpp:131] Top shape: 50 512 14 14 (5017600)
I0315 14:15:50.459514 22590 net.cpp:131] Top shape: 50 512 14 14 (5017600)
I0315 14:15:50.459518 22590 net.cpp:131] Top shape: 50 512 14 14 (5017600)
I0315 14:15:50.459520 22590 net.cpp:139] Memory required for data: 2314932804
I0315 14:15:50.459523 22590 layer_factory.hpp:77] Creating layer inception_4d/1x1
I0315 14:15:50.459532 22590 net.cpp:86] Creating Layer inception_4d/1x1
I0315 14:15:50.459534 22590 net.cpp:408] inception_4d/1x1 <- inception_4c/output_inception_4c/output_0_split_0
I0315 14:15:50.459539 22590 net.cpp:382] inception_4d/1x1 -> inception_4d/1x1
I0315 14:15:50.459990 22590 net.cpp:124] Setting up inception_4d/1x1
I0315 14:15:50.459996 22590 net.cpp:131] Top shape: 50 112 14 14 (1097600)
I0315 14:15:50.460000 22590 net.cpp:139] Memory required for data: 2319323204
I0315 14:15:50.460005 22590 layer_factory.hpp:77] Creating layer inception_4d/relu_1x1
I0315 14:15:50.460011 22590 net.cpp:86] Creating Layer inception_4d/relu_1x1
I0315 14:15:50.460017 22590 net.cpp:408] inception_4d/relu_1x1 <- inception_4d/1x1
I0315 14:15:50.460022 22590 net.cpp:369] inception_4d/relu_1x1 -> inception_4d/1x1 (in-place)
I0315 14:15:50.460027 22590 net.cpp:124] Setting up inception_4d/relu_1x1
I0315 14:15:50.460031 22590 net.cpp:131] Top shape: 50 112 14 14 (1097600)
I0315 14:15:50.460034 22590 net.cpp:139] Memory required for data: 2323713604
I0315 14:15:50.460037 22590 layer_factory.hpp:77] Creating layer inception_4d/3x3_reduce
I0315 14:15:50.460044 22590 net.cpp:86] Creating Layer inception_4d/3x3_reduce
I0315 14:15:50.460054 22590 net.cpp:408] inception_4d/3x3_reduce <- inception_4c/output_inception_4c/output_0_split_1
I0315 14:15:50.460060 22590 net.cpp:382] inception_4d/3x3_reduce -> inception_4d/3x3_reduce
I0315 14:15:50.460590 22590 net.cpp:124] Setting up inception_4d/3x3_reduce
I0315 14:15:50.460597 22590 net.cpp:131] Top shape: 50 144 14 14 (1411200)
I0315 14:15:50.460600 22590 net.cpp:139] Memory required for data: 2329358404
I0315 14:15:50.460606 22590 layer_factory.hpp:77] Creating layer inception_4d/relu_3x3_reduce
I0315 14:15:50.460611 22590 net.cpp:86] Creating Layer inception_4d/relu_3x3_reduce
I0315 14:15:50.460614 22590 net.cpp:408] inception_4d/relu_3x3_reduce <- inception_4d/3x3_reduce
I0315 14:15:50.460619 22590 net.cpp:369] inception_4d/relu_3x3_reduce -> inception_4d/3x3_reduce (in-place)
I0315 14:15:50.460625 22590 net.cpp:124] Setting up inception_4d/relu_3x3_reduce
I0315 14:15:50.460629 22590 net.cpp:131] Top shape: 50 144 14 14 (1411200)
I0315 14:15:50.460633 22590 net.cpp:139] Memory required for data: 2335003204
I0315 14:15:50.460634 22590 layer_factory.hpp:77] Creating layer inception_4d/3x3
I0315 14:15:50.460642 22590 net.cpp:86] Creating Layer inception_4d/3x3
I0315 14:15:50.460645 22590 net.cpp:408] inception_4d/3x3 <- inception_4d/3x3_reduce
I0315 14:15:50.460650 22590 net.cpp:382] inception_4d/3x3 -> inception_4d/3x3
I0315 14:15:50.463410 22590 net.cpp:124] Setting up inception_4d/3x3
I0315 14:15:50.463425 22590 net.cpp:131] Top shape: 50 288 14 14 (2822400)
I0315 14:15:50.463428 22590 net.cpp:139] Memory required for data: 2346292804
I0315 14:15:50.463434 22590 layer_factory.hpp:77] Creating layer inception_4d/relu_3x3
I0315 14:15:50.463440 22590 net.cpp:86] Creating Layer inception_4d/relu_3x3
I0315 14:15:50.463445 22590 net.cpp:408] inception_4d/relu_3x3 <- inception_4d/3x3
I0315 14:15:50.463450 22590 net.cpp:369] inception_4d/relu_3x3 -> inception_4d/3x3 (in-place)
I0315 14:15:50.463456 22590 net.cpp:124] Setting up inception_4d/relu_3x3
I0315 14:15:50.463460 22590 net.cpp:131] Top shape: 50 288 14 14 (2822400)
I0315 14:15:50.463464 22590 net.cpp:139] Memory required for data: 2357582404
I0315 14:15:50.463466 22590 layer_factory.hpp:77] Creating layer inception_4d/5x5_reduce
I0315 14:15:50.463474 22590 net.cpp:86] Creating Layer inception_4d/5x5_reduce
I0315 14:15:50.463477 22590 net.cpp:408] inception_4d/5x5_reduce <- inception_4c/output_inception_4c/output_0_split_2
I0315 14:15:50.463484 22590 net.cpp:382] inception_4d/5x5_reduce -> inception_4d/5x5_reduce
I0315 14:15:50.463744 22590 net.cpp:124] Setting up inception_4d/5x5_reduce
I0315 14:15:50.463752 22590 net.cpp:131] Top shape: 50 32 14 14 (313600)
I0315 14:15:50.463754 22590 net.cpp:139] Memory required for data: 2358836804
I0315 14:15:50.463760 22590 layer_factory.hpp:77] Creating layer inception_4d/relu_5x5_reduce
I0315 14:15:50.463764 22590 net.cpp:86] Creating Layer inception_4d/relu_5x5_reduce
I0315 14:15:50.463768 22590 net.cpp:408] inception_4d/relu_5x5_reduce <- inception_4d/5x5_reduce
I0315 14:15:50.463773 22590 net.cpp:369] inception_4d/relu_5x5_reduce -> inception_4d/5x5_reduce (in-place)
I0315 14:15:50.463778 22590 net.cpp:124] Setting up inception_4d/relu_5x5_reduce
I0315 14:15:50.463783 22590 net.cpp:131] Top shape: 50 32 14 14 (313600)
I0315 14:15:50.463785 22590 net.cpp:139] Memory required for data: 2360091204
I0315 14:15:50.463788 22590 layer_factory.hpp:77] Creating layer inception_4d/5x5
I0315 14:15:50.463795 22590 net.cpp:86] Creating Layer inception_4d/5x5
I0315 14:15:50.463802 22590 net.cpp:408] inception_4d/5x5 <- inception_4d/5x5_reduce
I0315 14:15:50.463809 22590 net.cpp:382] inception_4d/5x5 -> inception_4d/5x5
I0315 14:15:50.464233 22590 net.cpp:124] Setting up inception_4d/5x5
I0315 14:15:50.464241 22590 net.cpp:131] Top shape: 50 64 14 14 (627200)
I0315 14:15:50.464243 22590 net.cpp:139] Memory required for data: 2362600004
I0315 14:15:50.464248 22590 layer_factory.hpp:77] Creating layer inception_4d/relu_5x5
I0315 14:15:50.464253 22590 net.cpp:86] Creating Layer inception_4d/relu_5x5
I0315 14:15:50.464263 22590 net.cpp:408] inception_4d/relu_5x5 <- inception_4d/5x5
I0315 14:15:50.464268 22590 net.cpp:369] inception_4d/relu_5x5 -> inception_4d/5x5 (in-place)
I0315 14:15:50.464273 22590 net.cpp:124] Setting up inception_4d/relu_5x5
I0315 14:15:50.464277 22590 net.cpp:131] Top shape: 50 64 14 14 (627200)
I0315 14:15:50.464280 22590 net.cpp:139] Memory required for data: 2365108804
I0315 14:15:50.464283 22590 layer_factory.hpp:77] Creating layer inception_4d/pool
I0315 14:15:50.464289 22590 net.cpp:86] Creating Layer inception_4d/pool
I0315 14:15:50.464293 22590 net.cpp:408] inception_4d/pool <- inception_4c/output_inception_4c/output_0_split_3
I0315 14:15:50.464298 22590 net.cpp:382] inception_4d/pool -> inception_4d/pool
I0315 14:15:50.464328 22590 net.cpp:124] Setting up inception_4d/pool
I0315 14:15:50.464332 22590 net.cpp:131] Top shape: 50 512 14 14 (5017600)
I0315 14:15:50.464335 22590 net.cpp:139] Memory required for data: 2385179204
I0315 14:15:50.464339 22590 layer_factory.hpp:77] Creating layer inception_4d/pool_proj
I0315 14:15:50.464345 22590 net.cpp:86] Creating Layer inception_4d/pool_proj
I0315 14:15:50.464349 22590 net.cpp:408] inception_4d/pool_proj <- inception_4d/pool
I0315 14:15:50.464354 22590 net.cpp:382] inception_4d/pool_proj -> inception_4d/pool_proj
I0315 14:15:50.464685 22590 net.cpp:124] Setting up inception_4d/pool_proj
I0315 14:15:50.464692 22590 net.cpp:131] Top shape: 50 64 14 14 (627200)
I0315 14:15:50.464695 22590 net.cpp:139] Memory required for data: 2387688004
I0315 14:15:50.464700 22590 layer_factory.hpp:77] Creating layer inception_4d/relu_pool_proj
I0315 14:15:50.464706 22590 net.cpp:86] Creating Layer inception_4d/relu_pool_proj
I0315 14:15:50.464710 22590 net.cpp:408] inception_4d/relu_pool_proj <- inception_4d/pool_proj
I0315 14:15:50.464715 22590 net.cpp:369] inception_4d/relu_pool_proj -> inception_4d/pool_proj (in-place)
I0315 14:15:50.464720 22590 net.cpp:124] Setting up inception_4d/relu_pool_proj
I0315 14:15:50.464725 22590 net.cpp:131] Top shape: 50 64 14 14 (627200)
I0315 14:15:50.464726 22590 net.cpp:139] Memory required for data: 2390196804
I0315 14:15:50.464730 22590 layer_factory.hpp:77] Creating layer inception_4d/output
I0315 14:15:50.464735 22590 net.cpp:86] Creating Layer inception_4d/output
I0315 14:15:50.464740 22590 net.cpp:408] inception_4d/output <- inception_4d/1x1
I0315 14:15:50.464743 22590 net.cpp:408] inception_4d/output <- inception_4d/3x3
I0315 14:15:50.464746 22590 net.cpp:408] inception_4d/output <- inception_4d/5x5
I0315 14:15:50.464750 22590 net.cpp:408] inception_4d/output <- inception_4d/pool_proj
I0315 14:15:50.464756 22590 net.cpp:382] inception_4d/output -> inception_4d/output
I0315 14:15:50.464774 22590 net.cpp:124] Setting up inception_4d/output
I0315 14:15:50.464779 22590 net.cpp:131] Top shape: 50 528 14 14 (5174400)
I0315 14:15:50.464781 22590 net.cpp:139] Memory required for data: 2410894404
I0315 14:15:50.464785 22590 layer_factory.hpp:77] Creating layer inception_4d/output_inception_4d/output_0_split
I0315 14:15:50.464790 22590 net.cpp:86] Creating Layer inception_4d/output_inception_4d/output_0_split
I0315 14:15:50.464793 22590 net.cpp:408] inception_4d/output_inception_4d/output_0_split <- inception_4d/output
I0315 14:15:50.464799 22590 net.cpp:382] inception_4d/output_inception_4d/output_0_split -> inception_4d/output_inception_4d/output_0_split_0
I0315 14:15:50.464807 22590 net.cpp:382] inception_4d/output_inception_4d/output_0_split -> inception_4d/output_inception_4d/output_0_split_1
I0315 14:15:50.464815 22590 net.cpp:382] inception_4d/output_inception_4d/output_0_split -> inception_4d/output_inception_4d/output_0_split_2
I0315 14:15:50.464823 22590 net.cpp:382] inception_4d/output_inception_4d/output_0_split -> inception_4d/output_inception_4d/output_0_split_3
I0315 14:15:50.464828 22590 net.cpp:382] inception_4d/output_inception_4d/output_0_split -> inception_4d/output_inception_4d/output_0_split_4
I0315 14:15:50.464879 22590 net.cpp:124] Setting up inception_4d/output_inception_4d/output_0_split
I0315 14:15:50.464884 22590 net.cpp:131] Top shape: 50 528 14 14 (5174400)
I0315 14:15:50.464892 22590 net.cpp:131] Top shape: 50 528 14 14 (5174400)
I0315 14:15:50.464896 22590 net.cpp:131] Top shape: 50 528 14 14 (5174400)
I0315 14:15:50.464900 22590 net.cpp:131] Top shape: 50 528 14 14 (5174400)
I0315 14:15:50.464903 22590 net.cpp:131] Top shape: 50 528 14 14 (5174400)
I0315 14:15:50.464906 22590 net.cpp:139] Memory required for data: 2514382404
I0315 14:15:50.464910 22590 layer_factory.hpp:77] Creating layer loss2/ave_pool
I0315 14:15:50.464915 22590 net.cpp:86] Creating Layer loss2/ave_pool
I0315 14:15:50.464918 22590 net.cpp:408] loss2/ave_pool <- inception_4d/output_inception_4d/output_0_split_0
I0315 14:15:50.464923 22590 net.cpp:382] loss2/ave_pool -> loss2/ave_pool
I0315 14:15:50.464941 22590 net.cpp:124] Setting up loss2/ave_pool
I0315 14:15:50.464946 22590 net.cpp:131] Top shape: 50 528 4 4 (422400)
I0315 14:15:50.464949 22590 net.cpp:139] Memory required for data: 2516072004
I0315 14:15:50.464952 22590 layer_factory.hpp:77] Creating layer loss2/conv
I0315 14:15:50.464958 22590 net.cpp:86] Creating Layer loss2/conv
I0315 14:15:50.464962 22590 net.cpp:408] loss2/conv <- loss2/ave_pool
I0315 14:15:50.464967 22590 net.cpp:382] loss2/conv -> loss2/conv
I0315 14:15:50.465463 22590 net.cpp:124] Setting up loss2/conv
I0315 14:15:50.465471 22590 net.cpp:131] Top shape: 50 128 4 4 (102400)
I0315 14:15:50.465473 22590 net.cpp:139] Memory required for data: 2516481604
I0315 14:15:50.465478 22590 layer_factory.hpp:77] Creating layer loss2/relu_conv
I0315 14:15:50.465483 22590 net.cpp:86] Creating Layer loss2/relu_conv
I0315 14:15:50.465487 22590 net.cpp:408] loss2/relu_conv <- loss2/conv
I0315 14:15:50.465492 22590 net.cpp:369] loss2/relu_conv -> loss2/conv (in-place)
I0315 14:15:50.465497 22590 net.cpp:124] Setting up loss2/relu_conv
I0315 14:15:50.465500 22590 net.cpp:131] Top shape: 50 128 4 4 (102400)
I0315 14:15:50.465503 22590 net.cpp:139] Memory required for data: 2516891204
I0315 14:15:50.465507 22590 layer_factory.hpp:77] Creating layer loss2/fc
I0315 14:15:50.465512 22590 net.cpp:86] Creating Layer loss2/fc
I0315 14:15:50.465517 22590 net.cpp:408] loss2/fc <- loss2/conv
I0315 14:15:50.465520 22590 net.cpp:382] loss2/fc -> loss2/fc
I0315 14:15:50.478166 22590 net.cpp:124] Setting up loss2/fc
I0315 14:15:50.478194 22590 net.cpp:131] Top shape: 50 1024 (51200)
I0315 14:15:50.478198 22590 net.cpp:139] Memory required for data: 2517096004
I0315 14:15:50.478205 22590 layer_factory.hpp:77] Creating layer loss2/relu_fc
I0315 14:15:50.478214 22590 net.cpp:86] Creating Layer loss2/relu_fc
I0315 14:15:50.478220 22590 net.cpp:408] loss2/relu_fc <- loss2/fc
I0315 14:15:50.478227 22590 net.cpp:369] loss2/relu_fc -> loss2/fc (in-place)
I0315 14:15:50.478235 22590 net.cpp:124] Setting up loss2/relu_fc
I0315 14:15:50.478240 22590 net.cpp:131] Top shape: 50 1024 (51200)
I0315 14:15:50.478242 22590 net.cpp:139] Memory required for data: 2517300804
I0315 14:15:50.478245 22590 layer_factory.hpp:77] Creating layer loss2/drop_fc
I0315 14:15:50.478251 22590 net.cpp:86] Creating Layer loss2/drop_fc
I0315 14:15:50.478255 22590 net.cpp:408] loss2/drop_fc <- loss2/fc
I0315 14:15:50.478260 22590 net.cpp:369] loss2/drop_fc -> loss2/fc (in-place)
I0315 14:15:50.478282 22590 net.cpp:124] Setting up loss2/drop_fc
I0315 14:15:50.478287 22590 net.cpp:131] Top shape: 50 1024 (51200)
I0315 14:15:50.478291 22590 net.cpp:139] Memory required for data: 2517505604
I0315 14:15:50.478293 22590 layer_factory.hpp:77] Creating layer loss2/classifier-bird
I0315 14:15:50.478309 22590 net.cpp:86] Creating Layer loss2/classifier-bird
I0315 14:15:50.478312 22590 net.cpp:408] loss2/classifier-bird <- loss2/fc
I0315 14:15:50.478318 22590 net.cpp:382] loss2/classifier-bird -> loss2/classifier
I0315 14:15:50.478423 22590 net.cpp:124] Setting up loss2/classifier-bird
I0315 14:15:50.478428 22590 net.cpp:131] Top shape: 50 4 (200)
I0315 14:15:50.478431 22590 net.cpp:139] Memory required for data: 2517506404
I0315 14:15:50.478437 22590 layer_factory.hpp:77] Creating layer loss2/loss
I0315 14:15:50.478451 22590 net.cpp:86] Creating Layer loss2/loss
I0315 14:15:50.478456 22590 net.cpp:408] loss2/loss <- loss2/classifier
I0315 14:15:50.478461 22590 net.cpp:408] loss2/loss <- label_data_1_split_1
I0315 14:15:50.478466 22590 net.cpp:382] loss2/loss -> loss2/loss1
I0315 14:15:50.478473 22590 layer_factory.hpp:77] Creating layer loss2/loss
I0315 14:15:50.478546 22590 net.cpp:124] Setting up loss2/loss
I0315 14:15:50.478552 22590 net.cpp:131] Top shape: (1)
I0315 14:15:50.478555 22590 net.cpp:134]     with loss weight 0.3
I0315 14:15:50.478567 22590 net.cpp:139] Memory required for data: 2517506408
I0315 14:15:50.478570 22590 layer_factory.hpp:77] Creating layer inception_4e/1x1
I0315 14:15:50.478579 22590 net.cpp:86] Creating Layer inception_4e/1x1
I0315 14:15:50.478584 22590 net.cpp:408] inception_4e/1x1 <- inception_4d/output_inception_4d/output_0_split_1
I0315 14:15:50.478590 22590 net.cpp:382] inception_4e/1x1 -> inception_4e/1x1
I0315 14:15:50.479503 22590 net.cpp:124] Setting up inception_4e/1x1
I0315 14:15:50.479512 22590 net.cpp:131] Top shape: 50 256 14 14 (2508800)
I0315 14:15:50.479516 22590 net.cpp:139] Memory required for data: 2527541608
I0315 14:15:50.479521 22590 layer_factory.hpp:77] Creating layer inception_4e/relu_1x1
I0315 14:15:50.479526 22590 net.cpp:86] Creating Layer inception_4e/relu_1x1
I0315 14:15:50.479531 22590 net.cpp:408] inception_4e/relu_1x1 <- inception_4e/1x1
I0315 14:15:50.479535 22590 net.cpp:369] inception_4e/relu_1x1 -> inception_4e/1x1 (in-place)
I0315 14:15:50.479540 22590 net.cpp:124] Setting up inception_4e/relu_1x1
I0315 14:15:50.479544 22590 net.cpp:131] Top shape: 50 256 14 14 (2508800)
I0315 14:15:50.479547 22590 net.cpp:139] Memory required for data: 2537576808
I0315 14:15:50.479550 22590 layer_factory.hpp:77] Creating layer inception_4e/3x3_reduce
I0315 14:15:50.479557 22590 net.cpp:86] Creating Layer inception_4e/3x3_reduce
I0315 14:15:50.479560 22590 net.cpp:408] inception_4e/3x3_reduce <- inception_4d/output_inception_4d/output_0_split_2
I0315 14:15:50.479567 22590 net.cpp:382] inception_4e/3x3_reduce -> inception_4e/3x3_reduce
I0315 14:15:50.480172 22590 net.cpp:124] Setting up inception_4e/3x3_reduce
I0315 14:15:50.480180 22590 net.cpp:131] Top shape: 50 160 14 14 (1568000)
I0315 14:15:50.480182 22590 net.cpp:139] Memory required for data: 2543848808
I0315 14:15:50.480187 22590 layer_factory.hpp:77] Creating layer inception_4e/relu_3x3_reduce
I0315 14:15:50.480193 22590 net.cpp:86] Creating Layer inception_4e/relu_3x3_reduce
I0315 14:15:50.480196 22590 net.cpp:408] inception_4e/relu_3x3_reduce <- inception_4e/3x3_reduce
I0315 14:15:50.480201 22590 net.cpp:369] inception_4e/relu_3x3_reduce -> inception_4e/3x3_reduce (in-place)
I0315 14:15:50.480206 22590 net.cpp:124] Setting up inception_4e/relu_3x3_reduce
I0315 14:15:50.480211 22590 net.cpp:131] Top shape: 50 160 14 14 (1568000)
I0315 14:15:50.480213 22590 net.cpp:139] Memory required for data: 2550120808
I0315 14:15:50.480216 22590 layer_factory.hpp:77] Creating layer inception_4e/3x3
I0315 14:15:50.480222 22590 net.cpp:86] Creating Layer inception_4e/3x3
I0315 14:15:50.480226 22590 net.cpp:408] inception_4e/3x3 <- inception_4e/3x3_reduce
I0315 14:15:50.480232 22590 net.cpp:382] inception_4e/3x3 -> inception_4e/3x3
I0315 14:15:50.483501 22590 net.cpp:124] Setting up inception_4e/3x3
I0315 14:15:50.483515 22590 net.cpp:131] Top shape: 50 320 14 14 (3136000)
I0315 14:15:50.483520 22590 net.cpp:139] Memory required for data: 2562664808
I0315 14:15:50.483530 22590 layer_factory.hpp:77] Creating layer inception_4e/relu_3x3
I0315 14:15:50.483536 22590 net.cpp:86] Creating Layer inception_4e/relu_3x3
I0315 14:15:50.483539 22590 net.cpp:408] inception_4e/relu_3x3 <- inception_4e/3x3
I0315 14:15:50.483546 22590 net.cpp:369] inception_4e/relu_3x3 -> inception_4e/3x3 (in-place)
I0315 14:15:50.483552 22590 net.cpp:124] Setting up inception_4e/relu_3x3
I0315 14:15:50.483557 22590 net.cpp:131] Top shape: 50 320 14 14 (3136000)
I0315 14:15:50.483561 22590 net.cpp:139] Memory required for data: 2575208808
I0315 14:15:50.483563 22590 layer_factory.hpp:77] Creating layer inception_4e/5x5_reduce
I0315 14:15:50.483577 22590 net.cpp:86] Creating Layer inception_4e/5x5_reduce
I0315 14:15:50.483579 22590 net.cpp:408] inception_4e/5x5_reduce <- inception_4d/output_inception_4d/output_0_split_3
I0315 14:15:50.483585 22590 net.cpp:382] inception_4e/5x5_reduce -> inception_4e/5x5_reduce
I0315 14:15:50.483853 22590 net.cpp:124] Setting up inception_4e/5x5_reduce
I0315 14:15:50.483860 22590 net.cpp:131] Top shape: 50 32 14 14 (313600)
I0315 14:15:50.483862 22590 net.cpp:139] Memory required for data: 2576463208
I0315 14:15:50.483868 22590 layer_factory.hpp:77] Creating layer inception_4e/relu_5x5_reduce
I0315 14:15:50.483873 22590 net.cpp:86] Creating Layer inception_4e/relu_5x5_reduce
I0315 14:15:50.483877 22590 net.cpp:408] inception_4e/relu_5x5_reduce <- inception_4e/5x5_reduce
I0315 14:15:50.483881 22590 net.cpp:369] inception_4e/relu_5x5_reduce -> inception_4e/5x5_reduce (in-place)
I0315 14:15:50.483886 22590 net.cpp:124] Setting up inception_4e/relu_5x5_reduce
I0315 14:15:50.483891 22590 net.cpp:131] Top shape: 50 32 14 14 (313600)
I0315 14:15:50.483893 22590 net.cpp:139] Memory required for data: 2577717608
I0315 14:15:50.483896 22590 layer_factory.hpp:77] Creating layer inception_4e/5x5
I0315 14:15:50.483924 22590 net.cpp:86] Creating Layer inception_4e/5x5
I0315 14:15:50.483929 22590 net.cpp:408] inception_4e/5x5 <- inception_4e/5x5_reduce
I0315 14:15:50.483934 22590 net.cpp:382] inception_4e/5x5 -> inception_4e/5x5
I0315 14:15:50.484670 22590 net.cpp:124] Setting up inception_4e/5x5
I0315 14:15:50.484678 22590 net.cpp:131] Top shape: 50 128 14 14 (1254400)
I0315 14:15:50.484681 22590 net.cpp:139] Memory required for data: 2582735208
I0315 14:15:50.484686 22590 layer_factory.hpp:77] Creating layer inception_4e/relu_5x5
I0315 14:15:50.484691 22590 net.cpp:86] Creating Layer inception_4e/relu_5x5
I0315 14:15:50.484695 22590 net.cpp:408] inception_4e/relu_5x5 <- inception_4e/5x5
I0315 14:15:50.484700 22590 net.cpp:369] inception_4e/relu_5x5 -> inception_4e/5x5 (in-place)
I0315 14:15:50.484705 22590 net.cpp:124] Setting up inception_4e/relu_5x5
I0315 14:15:50.484709 22590 net.cpp:131] Top shape: 50 128 14 14 (1254400)
I0315 14:15:50.484711 22590 net.cpp:139] Memory required for data: 2587752808
I0315 14:15:50.484715 22590 layer_factory.hpp:77] Creating layer inception_4e/pool
I0315 14:15:50.484721 22590 net.cpp:86] Creating Layer inception_4e/pool
I0315 14:15:50.484724 22590 net.cpp:408] inception_4e/pool <- inception_4d/output_inception_4d/output_0_split_4
I0315 14:15:50.484730 22590 net.cpp:382] inception_4e/pool -> inception_4e/pool
I0315 14:15:50.484760 22590 net.cpp:124] Setting up inception_4e/pool
I0315 14:15:50.484764 22590 net.cpp:131] Top shape: 50 528 14 14 (5174400)
I0315 14:15:50.484767 22590 net.cpp:139] Memory required for data: 2608450408
I0315 14:15:50.484771 22590 layer_factory.hpp:77] Creating layer inception_4e/pool_proj
I0315 14:15:50.484777 22590 net.cpp:86] Creating Layer inception_4e/pool_proj
I0315 14:15:50.484781 22590 net.cpp:408] inception_4e/pool_proj <- inception_4e/pool
I0315 14:15:50.484786 22590 net.cpp:382] inception_4e/pool_proj -> inception_4e/pool_proj
I0315 14:15:50.485296 22590 net.cpp:124] Setting up inception_4e/pool_proj
I0315 14:15:50.485302 22590 net.cpp:131] Top shape: 50 128 14 14 (1254400)
I0315 14:15:50.485306 22590 net.cpp:139] Memory required for data: 2613468008
I0315 14:15:50.485311 22590 layer_factory.hpp:77] Creating layer inception_4e/relu_pool_proj
I0315 14:15:50.485318 22590 net.cpp:86] Creating Layer inception_4e/relu_pool_proj
I0315 14:15:50.485323 22590 net.cpp:408] inception_4e/relu_pool_proj <- inception_4e/pool_proj
I0315 14:15:50.485327 22590 net.cpp:369] inception_4e/relu_pool_proj -> inception_4e/pool_proj (in-place)
I0315 14:15:50.485332 22590 net.cpp:124] Setting up inception_4e/relu_pool_proj
I0315 14:15:50.485337 22590 net.cpp:131] Top shape: 50 128 14 14 (1254400)
I0315 14:15:50.485339 22590 net.cpp:139] Memory required for data: 2618485608
I0315 14:15:50.485342 22590 layer_factory.hpp:77] Creating layer inception_4e/output
I0315 14:15:50.485352 22590 net.cpp:86] Creating Layer inception_4e/output
I0315 14:15:50.485357 22590 net.cpp:408] inception_4e/output <- inception_4e/1x1
I0315 14:15:50.485360 22590 net.cpp:408] inception_4e/output <- inception_4e/3x3
I0315 14:15:50.485364 22590 net.cpp:408] inception_4e/output <- inception_4e/5x5
I0315 14:15:50.485368 22590 net.cpp:408] inception_4e/output <- inception_4e/pool_proj
I0315 14:15:50.485373 22590 net.cpp:382] inception_4e/output -> inception_4e/output
I0315 14:15:50.485393 22590 net.cpp:124] Setting up inception_4e/output
I0315 14:15:50.485399 22590 net.cpp:131] Top shape: 50 832 14 14 (8153600)
I0315 14:15:50.485400 22590 net.cpp:139] Memory required for data: 2651100008
I0315 14:15:50.485404 22590 layer_factory.hpp:77] Creating layer pool4/3x3_s2
I0315 14:15:50.485409 22590 net.cpp:86] Creating Layer pool4/3x3_s2
I0315 14:15:50.485414 22590 net.cpp:408] pool4/3x3_s2 <- inception_4e/output
I0315 14:15:50.485419 22590 net.cpp:382] pool4/3x3_s2 -> pool4/3x3_s2
I0315 14:15:50.485445 22590 net.cpp:124] Setting up pool4/3x3_s2
I0315 14:15:50.485450 22590 net.cpp:131] Top shape: 50 832 7 7 (2038400)
I0315 14:15:50.485452 22590 net.cpp:139] Memory required for data: 2659253608
I0315 14:15:50.485455 22590 layer_factory.hpp:77] Creating layer pool4/3x3_s2_pool4/3x3_s2_0_split
I0315 14:15:50.485461 22590 net.cpp:86] Creating Layer pool4/3x3_s2_pool4/3x3_s2_0_split
I0315 14:15:50.485466 22590 net.cpp:408] pool4/3x3_s2_pool4/3x3_s2_0_split <- pool4/3x3_s2
I0315 14:15:50.485469 22590 net.cpp:382] pool4/3x3_s2_pool4/3x3_s2_0_split -> pool4/3x3_s2_pool4/3x3_s2_0_split_0
I0315 14:15:50.485476 22590 net.cpp:382] pool4/3x3_s2_pool4/3x3_s2_0_split -> pool4/3x3_s2_pool4/3x3_s2_0_split_1
I0315 14:15:50.485481 22590 net.cpp:382] pool4/3x3_s2_pool4/3x3_s2_0_split -> pool4/3x3_s2_pool4/3x3_s2_0_split_2
I0315 14:15:50.485487 22590 net.cpp:382] pool4/3x3_s2_pool4/3x3_s2_0_split -> pool4/3x3_s2_pool4/3x3_s2_0_split_3
I0315 14:15:50.485536 22590 net.cpp:124] Setting up pool4/3x3_s2_pool4/3x3_s2_0_split
I0315 14:15:50.485543 22590 net.cpp:131] Top shape: 50 832 7 7 (2038400)
I0315 14:15:50.485545 22590 net.cpp:131] Top shape: 50 832 7 7 (2038400)
I0315 14:15:50.485550 22590 net.cpp:131] Top shape: 50 832 7 7 (2038400)
I0315 14:15:50.485553 22590 net.cpp:131] Top shape: 50 832 7 7 (2038400)
I0315 14:15:50.485556 22590 net.cpp:139] Memory required for data: 2691868008
I0315 14:15:50.485559 22590 layer_factory.hpp:77] Creating layer inception_5a/1x1
I0315 14:15:50.485566 22590 net.cpp:86] Creating Layer inception_5a/1x1
I0315 14:15:50.485569 22590 net.cpp:408] inception_5a/1x1 <- pool4/3x3_s2_pool4/3x3_s2_0_split_0
I0315 14:15:50.485575 22590 net.cpp:382] inception_5a/1x1 -> inception_5a/1x1
I0315 14:15:50.495244 22590 net.cpp:124] Setting up inception_5a/1x1
I0315 14:15:50.495263 22590 net.cpp:131] Top shape: 50 256 7 7 (627200)
I0315 14:15:50.495266 22590 net.cpp:139] Memory required for data: 2694376808
I0315 14:15:50.495273 22590 layer_factory.hpp:77] Creating layer inception_5a/relu_1x1
I0315 14:15:50.495280 22590 net.cpp:86] Creating Layer inception_5a/relu_1x1
I0315 14:15:50.495285 22590 net.cpp:408] inception_5a/relu_1x1 <- inception_5a/1x1
I0315 14:15:50.495290 22590 net.cpp:369] inception_5a/relu_1x1 -> inception_5a/1x1 (in-place)
I0315 14:15:50.495296 22590 net.cpp:124] Setting up inception_5a/relu_1x1
I0315 14:15:50.495301 22590 net.cpp:131] Top shape: 50 256 7 7 (627200)
I0315 14:15:50.495309 22590 net.cpp:139] Memory required for data: 2696885608
I0315 14:15:50.495312 22590 layer_factory.hpp:77] Creating layer inception_5a/3x3_reduce
I0315 14:15:50.495321 22590 net.cpp:86] Creating Layer inception_5a/3x3_reduce
I0315 14:15:50.495323 22590 net.cpp:408] inception_5a/3x3_reduce <- pool4/3x3_s2_pool4/3x3_s2_0_split_1
I0315 14:15:50.495331 22590 net.cpp:382] inception_5a/3x3_reduce -> inception_5a/3x3_reduce
I0315 14:15:50.496165 22590 net.cpp:124] Setting up inception_5a/3x3_reduce
I0315 14:15:50.496171 22590 net.cpp:131] Top shape: 50 160 7 7 (392000)
I0315 14:15:50.496181 22590 net.cpp:139] Memory required for data: 2698453608
I0315 14:15:50.496187 22590 layer_factory.hpp:77] Creating layer inception_5a/relu_3x3_reduce
I0315 14:15:50.496192 22590 net.cpp:86] Creating Layer inception_5a/relu_3x3_reduce
I0315 14:15:50.496196 22590 net.cpp:408] inception_5a/relu_3x3_reduce <- inception_5a/3x3_reduce
I0315 14:15:50.496201 22590 net.cpp:369] inception_5a/relu_3x3_reduce -> inception_5a/3x3_reduce (in-place)
I0315 14:15:50.496207 22590 net.cpp:124] Setting up inception_5a/relu_3x3_reduce
I0315 14:15:50.496212 22590 net.cpp:131] Top shape: 50 160 7 7 (392000)
I0315 14:15:50.496214 22590 net.cpp:139] Memory required for data: 2700021608
I0315 14:15:50.496217 22590 layer_factory.hpp:77] Creating layer inception_5a/3x3
I0315 14:15:50.496224 22590 net.cpp:86] Creating Layer inception_5a/3x3
I0315 14:15:50.496227 22590 net.cpp:408] inception_5a/3x3 <- inception_5a/3x3_reduce
I0315 14:15:50.496232 22590 net.cpp:382] inception_5a/3x3 -> inception_5a/3x3
I0315 14:15:50.499474 22590 net.cpp:124] Setting up inception_5a/3x3
I0315 14:15:50.499488 22590 net.cpp:131] Top shape: 50 320 7 7 (784000)
I0315 14:15:50.499491 22590 net.cpp:139] Memory required for data: 2703157608
I0315 14:15:50.499497 22590 layer_factory.hpp:77] Creating layer inception_5a/relu_3x3
I0315 14:15:50.499505 22590 net.cpp:86] Creating Layer inception_5a/relu_3x3
I0315 14:15:50.499508 22590 net.cpp:408] inception_5a/relu_3x3 <- inception_5a/3x3
I0315 14:15:50.499513 22590 net.cpp:369] inception_5a/relu_3x3 -> inception_5a/3x3 (in-place)
I0315 14:15:50.499519 22590 net.cpp:124] Setting up inception_5a/relu_3x3
I0315 14:15:50.499523 22590 net.cpp:131] Top shape: 50 320 7 7 (784000)
I0315 14:15:50.499527 22590 net.cpp:139] Memory required for data: 2706293608
I0315 14:15:50.499531 22590 layer_factory.hpp:77] Creating layer inception_5a/5x5_reduce
I0315 14:15:50.499538 22590 net.cpp:86] Creating Layer inception_5a/5x5_reduce
I0315 14:15:50.499542 22590 net.cpp:408] inception_5a/5x5_reduce <- pool4/3x3_s2_pool4/3x3_s2_0_split_2
I0315 14:15:50.499548 22590 net.cpp:382] inception_5a/5x5_reduce -> inception_5a/5x5_reduce
I0315 14:15:50.499863 22590 net.cpp:124] Setting up inception_5a/5x5_reduce
I0315 14:15:50.499869 22590 net.cpp:131] Top shape: 50 32 7 7 (78400)
I0315 14:15:50.499872 22590 net.cpp:139] Memory required for data: 2706607208
I0315 14:15:50.499878 22590 layer_factory.hpp:77] Creating layer inception_5a/relu_5x5_reduce
I0315 14:15:50.499883 22590 net.cpp:86] Creating Layer inception_5a/relu_5x5_reduce
I0315 14:15:50.499886 22590 net.cpp:408] inception_5a/relu_5x5_reduce <- inception_5a/5x5_reduce
I0315 14:15:50.499891 22590 net.cpp:369] inception_5a/relu_5x5_reduce -> inception_5a/5x5_reduce (in-place)
I0315 14:15:50.499897 22590 net.cpp:124] Setting up inception_5a/relu_5x5_reduce
I0315 14:15:50.499902 22590 net.cpp:131] Top shape: 50 32 7 7 (78400)
I0315 14:15:50.499904 22590 net.cpp:139] Memory required for data: 2706920808
I0315 14:15:50.499907 22590 layer_factory.hpp:77] Creating layer inception_5a/5x5
I0315 14:15:50.499914 22590 net.cpp:86] Creating Layer inception_5a/5x5
I0315 14:15:50.499917 22590 net.cpp:408] inception_5a/5x5 <- inception_5a/5x5_reduce
I0315 14:15:50.499922 22590 net.cpp:382] inception_5a/5x5 -> inception_5a/5x5
I0315 14:15:50.500596 22590 net.cpp:124] Setting up inception_5a/5x5
I0315 14:15:50.500603 22590 net.cpp:131] Top shape: 50 128 7 7 (313600)
I0315 14:15:50.500607 22590 net.cpp:139] Memory required for data: 2708175208
I0315 14:15:50.500615 22590 layer_factory.hpp:77] Creating layer inception_5a/relu_5x5
I0315 14:15:50.500620 22590 net.cpp:86] Creating Layer inception_5a/relu_5x5
I0315 14:15:50.500625 22590 net.cpp:408] inception_5a/relu_5x5 <- inception_5a/5x5
I0315 14:15:50.500629 22590 net.cpp:369] inception_5a/relu_5x5 -> inception_5a/5x5 (in-place)
I0315 14:15:50.500634 22590 net.cpp:124] Setting up inception_5a/relu_5x5
I0315 14:15:50.500638 22590 net.cpp:131] Top shape: 50 128 7 7 (313600)
I0315 14:15:50.500641 22590 net.cpp:139] Memory required for data: 2709429608
I0315 14:15:50.500650 22590 layer_factory.hpp:77] Creating layer inception_5a/pool
I0315 14:15:50.500656 22590 net.cpp:86] Creating Layer inception_5a/pool
I0315 14:15:50.500659 22590 net.cpp:408] inception_5a/pool <- pool4/3x3_s2_pool4/3x3_s2_0_split_3
I0315 14:15:50.500665 22590 net.cpp:382] inception_5a/pool -> inception_5a/pool
I0315 14:15:50.500695 22590 net.cpp:124] Setting up inception_5a/pool
I0315 14:15:50.500701 22590 net.cpp:131] Top shape: 50 832 7 7 (2038400)
I0315 14:15:50.500705 22590 net.cpp:139] Memory required for data: 2717583208
I0315 14:15:50.500707 22590 layer_factory.hpp:77] Creating layer inception_5a/pool_proj
I0315 14:15:50.500715 22590 net.cpp:86] Creating Layer inception_5a/pool_proj
I0315 14:15:50.500717 22590 net.cpp:408] inception_5a/pool_proj <- inception_5a/pool
I0315 14:15:50.500723 22590 net.cpp:382] inception_5a/pool_proj -> inception_5a/pool_proj
I0315 14:15:50.502101 22590 net.cpp:124] Setting up inception_5a/pool_proj
I0315 14:15:50.502115 22590 net.cpp:131] Top shape: 50 128 7 7 (313600)
I0315 14:15:50.502117 22590 net.cpp:139] Memory required for data: 2718837608
I0315 14:15:50.502123 22590 layer_factory.hpp:77] Creating layer inception_5a/relu_pool_proj
I0315 14:15:50.502130 22590 net.cpp:86] Creating Layer inception_5a/relu_pool_proj
I0315 14:15:50.502133 22590 net.cpp:408] inception_5a/relu_pool_proj <- inception_5a/pool_proj
I0315 14:15:50.502138 22590 net.cpp:369] inception_5a/relu_pool_proj -> inception_5a/pool_proj (in-place)
I0315 14:15:50.502144 22590 net.cpp:124] Setting up inception_5a/relu_pool_proj
I0315 14:15:50.502149 22590 net.cpp:131] Top shape: 50 128 7 7 (313600)
I0315 14:15:50.502152 22590 net.cpp:139] Memory required for data: 2720092008
I0315 14:15:50.502154 22590 layer_factory.hpp:77] Creating layer inception_5a/output
I0315 14:15:50.502161 22590 net.cpp:86] Creating Layer inception_5a/output
I0315 14:15:50.502164 22590 net.cpp:408] inception_5a/output <- inception_5a/1x1
I0315 14:15:50.502168 22590 net.cpp:408] inception_5a/output <- inception_5a/3x3
I0315 14:15:50.502171 22590 net.cpp:408] inception_5a/output <- inception_5a/5x5
I0315 14:15:50.502176 22590 net.cpp:408] inception_5a/output <- inception_5a/pool_proj
I0315 14:15:50.502180 22590 net.cpp:382] inception_5a/output -> inception_5a/output
I0315 14:15:50.502202 22590 net.cpp:124] Setting up inception_5a/output
I0315 14:15:50.502207 22590 net.cpp:131] Top shape: 50 832 7 7 (2038400)
I0315 14:15:50.502209 22590 net.cpp:139] Memory required for data: 2728245608
I0315 14:15:50.502213 22590 layer_factory.hpp:77] Creating layer inception_5a/output_inception_5a/output_0_split
I0315 14:15:50.502218 22590 net.cpp:86] Creating Layer inception_5a/output_inception_5a/output_0_split
I0315 14:15:50.502223 22590 net.cpp:408] inception_5a/output_inception_5a/output_0_split <- inception_5a/output
I0315 14:15:50.502228 22590 net.cpp:382] inception_5a/output_inception_5a/output_0_split -> inception_5a/output_inception_5a/output_0_split_0
I0315 14:15:50.502234 22590 net.cpp:382] inception_5a/output_inception_5a/output_0_split -> inception_5a/output_inception_5a/output_0_split_1
I0315 14:15:50.502240 22590 net.cpp:382] inception_5a/output_inception_5a/output_0_split -> inception_5a/output_inception_5a/output_0_split_2
I0315 14:15:50.502245 22590 net.cpp:382] inception_5a/output_inception_5a/output_0_split -> inception_5a/output_inception_5a/output_0_split_3
I0315 14:15:50.502290 22590 net.cpp:124] Setting up inception_5a/output_inception_5a/output_0_split
I0315 14:15:50.502300 22590 net.cpp:131] Top shape: 50 832 7 7 (2038400)
I0315 14:15:50.502303 22590 net.cpp:131] Top shape: 50 832 7 7 (2038400)
I0315 14:15:50.502307 22590 net.cpp:131] Top shape: 50 832 7 7 (2038400)
I0315 14:15:50.502310 22590 net.cpp:131] Top shape: 50 832 7 7 (2038400)
I0315 14:15:50.502313 22590 net.cpp:139] Memory required for data: 2760860008
I0315 14:15:50.502316 22590 layer_factory.hpp:77] Creating layer inception_5b/1x1
I0315 14:15:50.502324 22590 net.cpp:86] Creating Layer inception_5b/1x1
I0315 14:15:50.502327 22590 net.cpp:408] inception_5b/1x1 <- inception_5a/output_inception_5a/output_0_split_0
I0315 14:15:50.502338 22590 net.cpp:382] inception_5b/1x1 -> inception_5b/1x1
I0315 14:15:50.504151 22590 net.cpp:124] Setting up inception_5b/1x1
I0315 14:15:50.504159 22590 net.cpp:131] Top shape: 50 384 7 7 (940800)
I0315 14:15:50.504163 22590 net.cpp:139] Memory required for data: 2764623208
I0315 14:15:50.504169 22590 layer_factory.hpp:77] Creating layer inception_5b/relu_1x1
I0315 14:15:50.504174 22590 net.cpp:86] Creating Layer inception_5b/relu_1x1
I0315 14:15:50.504178 22590 net.cpp:408] inception_5b/relu_1x1 <- inception_5b/1x1
I0315 14:15:50.504182 22590 net.cpp:369] inception_5b/relu_1x1 -> inception_5b/1x1 (in-place)
I0315 14:15:50.504189 22590 net.cpp:124] Setting up inception_5b/relu_1x1
I0315 14:15:50.504192 22590 net.cpp:131] Top shape: 50 384 7 7 (940800)
I0315 14:15:50.504195 22590 net.cpp:139] Memory required for data: 2768386408
I0315 14:15:50.504197 22590 layer_factory.hpp:77] Creating layer inception_5b/3x3_reduce
I0315 14:15:50.504205 22590 net.cpp:86] Creating Layer inception_5b/3x3_reduce
I0315 14:15:50.504209 22590 net.cpp:408] inception_5b/3x3_reduce <- inception_5a/output_inception_5a/output_0_split_1
I0315 14:15:50.504214 22590 net.cpp:382] inception_5b/3x3_reduce -> inception_5b/3x3_reduce
I0315 14:15:50.505947 22590 net.cpp:124] Setting up inception_5b/3x3_reduce
I0315 14:15:50.505961 22590 net.cpp:131] Top shape: 50 192 7 7 (470400)
I0315 14:15:50.505965 22590 net.cpp:139] Memory required for data: 2770268008
I0315 14:15:50.505971 22590 layer_factory.hpp:77] Creating layer inception_5b/relu_3x3_reduce
I0315 14:15:50.505977 22590 net.cpp:86] Creating Layer inception_5b/relu_3x3_reduce
I0315 14:15:50.505982 22590 net.cpp:408] inception_5b/relu_3x3_reduce <- inception_5b/3x3_reduce
I0315 14:15:50.505987 22590 net.cpp:369] inception_5b/relu_3x3_reduce -> inception_5b/3x3_reduce (in-place)
I0315 14:15:50.505993 22590 net.cpp:124] Setting up inception_5b/relu_3x3_reduce
I0315 14:15:50.505998 22590 net.cpp:131] Top shape: 50 192 7 7 (470400)
I0315 14:15:50.506001 22590 net.cpp:139] Memory required for data: 2772149608
I0315 14:15:50.506005 22590 layer_factory.hpp:77] Creating layer inception_5b/3x3
I0315 14:15:50.506012 22590 net.cpp:86] Creating Layer inception_5b/3x3
I0315 14:15:50.506016 22590 net.cpp:408] inception_5b/3x3 <- inception_5b/3x3_reduce
I0315 14:15:50.506022 22590 net.cpp:382] inception_5b/3x3 -> inception_5b/3x3
I0315 14:15:50.510339 22590 net.cpp:124] Setting up inception_5b/3x3
I0315 14:15:50.510354 22590 net.cpp:131] Top shape: 50 384 7 7 (940800)
I0315 14:15:50.510359 22590 net.cpp:139] Memory required for data: 2775912808
I0315 14:15:50.510365 22590 layer_factory.hpp:77] Creating layer inception_5b/relu_3x3
I0315 14:15:50.510371 22590 net.cpp:86] Creating Layer inception_5b/relu_3x3
I0315 14:15:50.510375 22590 net.cpp:408] inception_5b/relu_3x3 <- inception_5b/3x3
I0315 14:15:50.510381 22590 net.cpp:369] inception_5b/relu_3x3 -> inception_5b/3x3 (in-place)
I0315 14:15:50.510387 22590 net.cpp:124] Setting up inception_5b/relu_3x3
I0315 14:15:50.510391 22590 net.cpp:131] Top shape: 50 384 7 7 (940800)
I0315 14:15:50.510395 22590 net.cpp:139] Memory required for data: 2779676008
I0315 14:15:50.510397 22590 layer_factory.hpp:77] Creating layer inception_5b/5x5_reduce
I0315 14:15:50.510406 22590 net.cpp:86] Creating Layer inception_5b/5x5_reduce
I0315 14:15:50.510408 22590 net.cpp:408] inception_5b/5x5_reduce <- inception_5a/output_inception_5a/output_0_split_2
I0315 14:15:50.510419 22590 net.cpp:382] inception_5b/5x5_reduce -> inception_5b/5x5_reduce
I0315 14:15:50.510843 22590 net.cpp:124] Setting up inception_5b/5x5_reduce
I0315 14:15:50.510854 22590 net.cpp:131] Top shape: 50 48 7 7 (117600)
I0315 14:15:50.510856 22590 net.cpp:139] Memory required for data: 2780146408
I0315 14:15:50.510861 22590 layer_factory.hpp:77] Creating layer inception_5b/relu_5x5_reduce
I0315 14:15:50.510867 22590 net.cpp:86] Creating Layer inception_5b/relu_5x5_reduce
I0315 14:15:50.510871 22590 net.cpp:408] inception_5b/relu_5x5_reduce <- inception_5b/5x5_reduce
I0315 14:15:50.510884 22590 net.cpp:369] inception_5b/relu_5x5_reduce -> inception_5b/5x5_reduce (in-place)
I0315 14:15:50.510890 22590 net.cpp:124] Setting up inception_5b/relu_5x5_reduce
I0315 14:15:50.510895 22590 net.cpp:131] Top shape: 50 48 7 7 (117600)
I0315 14:15:50.510897 22590 net.cpp:139] Memory required for data: 2780616808
I0315 14:15:50.510900 22590 layer_factory.hpp:77] Creating layer inception_5b/5x5
I0315 14:15:50.510910 22590 net.cpp:86] Creating Layer inception_5b/5x5
I0315 14:15:50.510921 22590 net.cpp:408] inception_5b/5x5 <- inception_5b/5x5_reduce
I0315 14:15:50.510928 22590 net.cpp:382] inception_5b/5x5 -> inception_5b/5x5
I0315 14:15:50.511886 22590 net.cpp:124] Setting up inception_5b/5x5
I0315 14:15:50.511893 22590 net.cpp:131] Top shape: 50 128 7 7 (313600)
I0315 14:15:50.511896 22590 net.cpp:139] Memory required for data: 2781871208
I0315 14:15:50.511903 22590 layer_factory.hpp:77] Creating layer inception_5b/relu_5x5
I0315 14:15:50.511907 22590 net.cpp:86] Creating Layer inception_5b/relu_5x5
I0315 14:15:50.511911 22590 net.cpp:408] inception_5b/relu_5x5 <- inception_5b/5x5
I0315 14:15:50.511917 22590 net.cpp:369] inception_5b/relu_5x5 -> inception_5b/5x5 (in-place)
I0315 14:15:50.511922 22590 net.cpp:124] Setting up inception_5b/relu_5x5
I0315 14:15:50.511926 22590 net.cpp:131] Top shape: 50 128 7 7 (313600)
I0315 14:15:50.511929 22590 net.cpp:139] Memory required for data: 2783125608
I0315 14:15:50.511932 22590 layer_factory.hpp:77] Creating layer inception_5b/pool
I0315 14:15:50.511939 22590 net.cpp:86] Creating Layer inception_5b/pool
I0315 14:15:50.511941 22590 net.cpp:408] inception_5b/pool <- inception_5a/output_inception_5a/output_0_split_3
I0315 14:15:50.511947 22590 net.cpp:382] inception_5b/pool -> inception_5b/pool
I0315 14:15:50.511979 22590 net.cpp:124] Setting up inception_5b/pool
I0315 14:15:50.511987 22590 net.cpp:131] Top shape: 50 832 7 7 (2038400)
I0315 14:15:50.511989 22590 net.cpp:139] Memory required for data: 2791279208
I0315 14:15:50.511992 22590 layer_factory.hpp:77] Creating layer inception_5b/pool_proj
I0315 14:15:50.511999 22590 net.cpp:86] Creating Layer inception_5b/pool_proj
I0315 14:15:50.512003 22590 net.cpp:408] inception_5b/pool_proj <- inception_5b/pool
I0315 14:15:50.512011 22590 net.cpp:382] inception_5b/pool_proj -> inception_5b/pool_proj
I0315 14:15:50.512712 22590 net.cpp:124] Setting up inception_5b/pool_proj
I0315 14:15:50.512718 22590 net.cpp:131] Top shape: 50 128 7 7 (313600)
I0315 14:15:50.512722 22590 net.cpp:139] Memory required for data: 2792533608
I0315 14:15:50.512727 22590 layer_factory.hpp:77] Creating layer inception_5b/relu_pool_proj
I0315 14:15:50.512732 22590 net.cpp:86] Creating Layer inception_5b/relu_pool_proj
I0315 14:15:50.512735 22590 net.cpp:408] inception_5b/relu_pool_proj <- inception_5b/pool_proj
I0315 14:15:50.512742 22590 net.cpp:369] inception_5b/relu_pool_proj -> inception_5b/pool_proj (in-place)
I0315 14:15:50.512748 22590 net.cpp:124] Setting up inception_5b/relu_pool_proj
I0315 14:15:50.512751 22590 net.cpp:131] Top shape: 50 128 7 7 (313600)
I0315 14:15:50.512753 22590 net.cpp:139] Memory required for data: 2793788008
I0315 14:15:50.512758 22590 layer_factory.hpp:77] Creating layer inception_5b/output
I0315 14:15:50.512763 22590 net.cpp:86] Creating Layer inception_5b/output
I0315 14:15:50.512766 22590 net.cpp:408] inception_5b/output <- inception_5b/1x1
I0315 14:15:50.512770 22590 net.cpp:408] inception_5b/output <- inception_5b/3x3
I0315 14:15:50.512778 22590 net.cpp:408] inception_5b/output <- inception_5b/5x5
I0315 14:15:50.512781 22590 net.cpp:408] inception_5b/output <- inception_5b/pool_proj
I0315 14:15:50.512786 22590 net.cpp:382] inception_5b/output -> inception_5b/output
I0315 14:15:50.512807 22590 net.cpp:124] Setting up inception_5b/output
I0315 14:15:50.512814 22590 net.cpp:131] Top shape: 50 1024 7 7 (2508800)
I0315 14:15:50.512816 22590 net.cpp:139] Memory required for data: 2803823208
I0315 14:15:50.512820 22590 layer_factory.hpp:77] Creating layer pool5/7x7_s1
I0315 14:15:50.512825 22590 net.cpp:86] Creating Layer pool5/7x7_s1
I0315 14:15:50.512832 22590 net.cpp:408] pool5/7x7_s1 <- inception_5b/output
I0315 14:15:50.512840 22590 net.cpp:382] pool5/7x7_s1 -> pool5/7x7_s1
I0315 14:15:50.512859 22590 net.cpp:124] Setting up pool5/7x7_s1
I0315 14:15:50.512864 22590 net.cpp:131] Top shape: 50 1024 1 1 (51200)
I0315 14:15:50.512868 22590 net.cpp:139] Memory required for data: 2804028008
I0315 14:15:50.512871 22590 layer_factory.hpp:77] Creating layer pool5/drop_7x7_s1
I0315 14:15:50.512876 22590 net.cpp:86] Creating Layer pool5/drop_7x7_s1
I0315 14:15:50.512881 22590 net.cpp:408] pool5/drop_7x7_s1 <- pool5/7x7_s1
I0315 14:15:50.512886 22590 net.cpp:369] pool5/drop_7x7_s1 -> pool5/7x7_s1 (in-place)
I0315 14:15:50.512903 22590 net.cpp:124] Setting up pool5/drop_7x7_s1
I0315 14:15:50.512908 22590 net.cpp:131] Top shape: 50 1024 1 1 (51200)
I0315 14:15:50.512912 22590 net.cpp:139] Memory required for data: 2804232808
I0315 14:15:50.512914 22590 layer_factory.hpp:77] Creating layer loss3/classifier-bird
I0315 14:15:50.512924 22590 net.cpp:86] Creating Layer loss3/classifier-bird
I0315 14:15:50.512928 22590 net.cpp:408] loss3/classifier-bird <- pool5/7x7_s1
I0315 14:15:50.512934 22590 net.cpp:382] loss3/classifier-bird -> loss3/classifier-bird
I0315 14:15:50.513041 22590 net.cpp:124] Setting up loss3/classifier-bird
I0315 14:15:50.513047 22590 net.cpp:131] Top shape: 50 4 (200)
I0315 14:15:50.513049 22590 net.cpp:139] Memory required for data: 2804233608
I0315 14:15:50.513056 22590 layer_factory.hpp:77] Creating layer loss3/loss3
I0315 14:15:50.513062 22590 net.cpp:86] Creating Layer loss3/loss3
I0315 14:15:50.513067 22590 net.cpp:408] loss3/loss3 <- loss3/classifier-bird
I0315 14:15:50.513070 22590 net.cpp:408] loss3/loss3 <- label_data_1_split_2
I0315 14:15:50.513074 22590 net.cpp:382] loss3/loss3 -> loss3/loss3
…
I0315 14:15:50.515609 22590 net.cpp:296] The NetState phase (1) differed from the phase (0) specified by a rule in layer data
I0315 14:15:50.516507 22590 net.cpp:53] Initializing net from parameters: 
name: "GoogleNet"
state {
  phase: TEST
}
layer {
  name: "data"
  type: "Data"
  top: "data"
  top: "label"
  include {
    phase: TEST
  }
  transform_param {
    mirror: false
    crop_size: 224
    mean_file: "/home/jungmo/Documents/autonomous/caffe/db/mean.binaryproto"
  }
  data_param {
    source: "/home/jungmo/Documents/autonomous/caffe/db/train_imageData_lmDB"
    batch_size: 50
    backend: LMDB
  }
}
layer {
  name: "conv1/7x7_s2"
  type: "Convolution"
  bottom: "data"
  top: "conv1/7x7_s2"
  param {
    lr_mult: 1
    decay_mult: 1
  }
  param {
    lr_mult: 2
    decay_mult: 0
  }
  convolution_param {
    num_output: 64
    pad: 3
    kernel_size: 7
    stride: 2
    weight_filler {
      type: "xavier"
    }
    bias_filler {
      type: "constant"
      value: 0.2
    }
  }
}
layer {
  name: "conv1/relu_7x7"
  type: "ReLU"
  bottom: "conv1/7x7_s2"
  top: "conv1/7x7_s2"
}
layer {
  name: "pool1/3x3_s2"
  type: "Pooling"
  bottom: "conv1/7x7_s2"
  top: "pool1/3x3_s2"
  pooling_param {
    pool: MAX
    kernel_size: 3
    stride: 2
  }
}
layer {
  name: "pool1/norm1"
  type: "LRN"
  bottom: "pool1/3x3_s2"
  top: "pool1/norm1"
  lrn_param {
    local_size: 5
    alpha: 0.0001
    beta: 0.75
  }
}
layer {
  name: "conv2/3x3_reduce"
  type: "Convolution"
  bottom: "pool1/norm1"
  top: "conv2/3x3_reduce"
  param {
    lr_mult: 1
    decay_mult: 1
  }
  param {
    lr_mult: 2
    decay_mult: 0
  }
  convolution_param {
    num_output: 64
    kernel_size: 1
    weight_filler {
      type: "xavier"
    }
    bias_filler {
      type: "constant"
      value: 0.2
    }
  }
}
layer {
  name: "conv2/relu_3x3_reduce"
  type: "ReLU"
  bottom: "conv2/3x3_reduce"
  top: "conv2/3x3_reduce"
}
layer {
  name: "conv2/3x3"
  type: "Convolution"
  bottom: "conv2/3x3_reduce"
  top: "conv2/3x3"
  param {
    lr_mult: 1
    decay_mult: 1
  }
  param {
    lr_mult: 2
    decay_mult: 0
  }
  convolution_param {
    num_output: 192
    pad: 1
    kernel_size: 3
    weight_filler {
      type: "xavier"
    }
    bias_filler {
      type: "constant"
      value: 0.2
    }
  }
}
layer {
  name: "conv2/relu_3x3"
  type: "ReLU"
  bottom: "conv2/3x3"
  top: "conv2/3x3"
}
layer {
  name: "conv2/norm2"
  type: "LRN"
  bottom: "conv2/3x3"
  top: "conv2/norm2"
  lrn_param {
    local_size: 5
    alpha: 0.0001
    beta: 0.75
  }
}
layer {
  name: "pool2/3x3_s2"
  type: "Pooling"
  bottom: "conv2/norm2"
  top: "pool2/3x3_s2"
  pooling_param {
    pool: MAX
    kernel_size: 3
    stride: 2
  }
}
layer {
  name: "inception_3a/1x1"
  type: "Convolution"
  bottom: "pool2/3x3_s2"
  top: "inception_3a/1x1"
  param {
    lr_mult: 1
    decay_mult: 1
  }
  param {
    lr_mult: 2
    decay_mult: 0
  }
  convolution_param {
    num_output: 64
    kernel_size: 1
    weight_filler {
      type: "xavier"
    }
    bias_filler {
      type: "constant"
      value: 0.2
    }
  }
}
layer {
  name: "inception_3a/relu_1x1"
  type: "ReLU"
  bottom: "inception_3a/1x1"
  top: "inception_3a/1x1"
}
layer {
  name: "inception_3a/3x3_reduce"
  type: "Convolution"
  bottom: "pool2/3x3_s2"
  top: "inception_3a/3x3_reduce"
  param {
    lr_mult: 1
    decay_mult: 1
  }
  param {
    lr_mult: 2
    decay_mult: 0
  }
  convolution_param {
    num_output: 96
    kernel_size: 1
    weight_filler {
      type: "xavier"
    }
    bias_filler {
      type: "constant"
      value: 0.2
    }
  }
}
layer {
  name: "inception_3a/relu_3x3_reduce"
  type: "ReLU"
  bottom: "inception_3a/3x3_reduce"
  top: "inception_3a/3x3_reduce"
}
layer {
  name: "inception_3a/3x3"
  type: "Convolution"
  bottom: "inception_3a/3x3_reduce"
  top: "inception_3a/3x3"
  param {
    lr_mult: 1
    decay_mult: 1
  }
  param {
    lr_mult: 2
    decay_mult: 0
  }
  convolution_param {
    num_output: 128
    pad: 1
    kernel_size: 3
    weight_filler {
      type: "xavier"
    }
    bias_filler {
      type: "constant"
      value: 0.2
    }
  }
}
layer {
  name: "inception_3a/relu_3x3"
  type: "ReLU"
  bottom: "inception_3a/3x3"
  top: "inception_3a/3x3"
}
layer {
  name: "inception_3a/5x5_reduce"
  type: "Convolution"
  bottom: "pool2/3x3_s2"
  top: "inception_3a/5x5_reduce"
  param {
    lr_mult: 1
    decay_mult: 1
  }
  param {
    lr_mult: 2
    decay_mult: 0
  }
  convolution_param {
    num_output: 16
    kernel_size: 1
    weight_filler {
      type: "xavier"
    }
    bias_filler {
      type: "constant"
      value: 0.2
    }
  }
}
layer {
  name: "inception_3a/relu_5x5_reduce"
  type: "ReLU"
  bottom: "inception_3a/5x5_reduce"
  top: "inception_3a/5x5_reduce"
}
layer {
  name: "inception_3a/5x5"
  type: "Convolution"
  bottom: "inception_3a/5x5_reduce"
  top: "inception_3a/5x5"
  param {
    lr_mult: 1
    decay_mult: 1
  }
  param {
    lr_mult: 2
    decay_mult: 0
  }
  convolution_param {
    num_output: 32
    pad: 2
    kernel_size: 5
    weight_filler {
      type: "xavier"
    }
    bias_filler {
      type: "constant"
      value: 0.2
    }
  }
}
layer {
  name: "inception_3a/relu_5x5"
  type: "ReLU"
  bottom: "inception_3a/5x5"
  top: "inception_3a/5x5"
}
layer {
  name: "inception_3a/pool"
  type: "Pooling"
  bottom: "pool2/3x3_s2"
  top: "inception_3a/pool"
  pooling_param {
    pool: MAX
    kernel_size: 3
    stride: 1
    pad: 1
  }
}
layer {
  name: "inception_3a/pool_proj"
  type: "Convolution"
  bottom: "inception_3a/pool"
  top: "inception_3a/pool_proj"
  param {
    lr_mult: 1
    decay_mult: 1
  }
  param {
    lr_mult: 2
    decay_mult: 0
  }
  convolution_param {
    num_output: 32
    kernel_size: 1
    weight_filler {
      type: "xavier"
    }
    bias_filler {
      type: "constant"
      value: 0.2
    }
  }
}
layer {
  name: "inception_3a/relu_pool_proj"
  type: "ReLU"
  bottom: "inception_3a/pool_proj"
  top: "inception_3a/pool_proj"
}
layer {
  name: "inception_3a/output"
  type: "Concat"
  bottom: "inception_3a/1x1"
  bottom: "inception_3a/3x3"
  bottom: "inception_3a/5x5"
  bottom: "inception_3a/pool_proj"
  top: "inception_3a/output"
}
layer {
  name: "inception_3b/1x1"
  type: "Convolution"
  bottom: "inception_3a/output"
  top: "inception_3b/1x1"
  param {
    lr_mult: 1
    decay_mult: 1
  }
  param {
    lr_mult: 2
    decay_mult: 0
  }
  convolution_param {
    num_output: 128
    kernel_size: 1
    weight_filler {
      type: "xavier"
    }
    bias_filler {
      type: "constant"
      value: 0.2
    }
  }
}
layer {
  name: "inception_3b/relu_1x1"
  type: "ReLU"
  bottom: "inception_3b/1x1"
  top: "inception_3b/1x1"
}
layer {
  name: "inception_3b/3x3_reduce"
  type: "Convolution"
  bottom: "inception_3a/output"
  top: "inception_3b/3x3_reduce"
  param {
    lr_mult: 1
    decay_mult: 1
  }
  param {
    lr_mult: 2
    decay_mult: 0
  }
  convolution_param {
    num_output: 128
    kernel_size: 1
    weight_filler {
      type: "xavier"
    }
    bias_filler {
      type: "constant"
      value: 0.2
    }
  }
}
layer {
  name: "inception_3b/relu_3x3_reduce"
  type: "ReLU"
  bottom: "inception_3b/3x3_reduce"
  top: "inception_3b/3x3_reduce"
}
layer {
  name: "inception_3b/3x3"
  type: "Convolution"
  bottom: "inception_3b/3x3_reduce"
  top: "inception_3b/3x3"
  param {
    lr_mult: 1
    decay_mult: 1
  }
  param {
    lr_mult: 2
    decay_mult: 0
  }
  convolution_param {
    num_output: 192
    pad: 1
    kernel_size: 3
    weight_filler {
      type: "xavier"
    }
    bias_filler {
      type: "constant"
      value: 0.2
    }
  }
}
layer {
  name: "inception_3b/relu_3x3"
  type: "ReLU"
  bottom: "inception_3b/3x3"
  top: "inception_3b/3x3"
}
layer {
  name: "inception_3b/5x5_reduce"
  type: "Convolution"
  bottom: "inception_3a/output"
  top: "inception_3b/5x5_reduce"
  param {
    lr_mult: 1
    decay_mult: 1
  }
  param {
    lr_mult: 2
    decay_mult: 0
  }
  convolution_param {
    num_output: 32
    kernel_size: 1
    weight_filler {
      type: "xavier"
    }
    bias_filler {
      type: "constant"
      value: 0.2
    }
  }
}
layer {
  name: "inception_3b/relu_5x5_reduce"
  type: "ReLU"
  bottom: "inception_3b/5x5_reduce"
  top: "inception_3b/5x5_reduce"
}
layer {
  name: "inception_3b/5x5"
  type: "Convolution"
  bottom: "inception_3b/5x5_reduce"
  top: "inception_3b/5x5"
  param {
    lr_mult: 1
    decay_mult: 1
  }
  param {
    lr_mult: 2
    decay_mult: 0
  }
  convolution_param {
    num_output: 96
    pad: 2
    kernel_size: 5
    weight_filler {
      type: "xavier"
    }
    bias_filler {
      type: "constant"
      value: 0.2
    }
  }
}
layer {
  name: "inception_3b/relu_5x5"
  type: "ReLU"
  bottom: "inception_3b/5x5"
  top: "inception_3b/5x5"
}
layer {
  name: "inception_3b/pool"
  type: "Pooling"
  bottom: "inception_3a/output"
  top: "inception_3b/pool"
  pooling_param {
    pool: MAX
    kernel_size: 3
    stride: 1
    pad: 1
  }
}
layer {
  name: "inception_3b/pool_proj"
  type: "Convolution"
  bottom: "inception_3b/pool"
  top: "inception_3b/pool_proj"
  param {
    lr_mult: 1
    decay_mult: 1
  }
  param {
    lr_mult: 2
    decay_mult: 0
  }
  convolution_param {
    num_output: 64
    kernel_size: 1
    weight_filler {
      type: "xavier"
    }
    bias_filler {
      type: "constant"
      value: 0.2
    }
  }
}
layer {
  name: "inception_3b/relu_pool_proj"
  type: "ReLU"
  bottom: "inception_3b/pool_proj"
  top: "inception_3b/pool_proj"
}
layer {
  name: "inception_3b/output"
  type: "Concat"
  bottom: "inception_3b/1x1"
  bottom: "inception_3b/3x3"
  bottom: "inception_3b/5x5"
  bottom: "inception_3b/pool_proj"
  top: "inception_3b/output"
}
layer {
  name: "pool3/3x3_s2"
  type: "Pooling"
  bottom: "inception_3b/output"
  top: "pool3/3x3_s2"
  pooling_param {
    pool: MAX
    kernel_size: 3
    stride: 2
  }
}
layer {
  name: "inception_4a/1x1"
  type: "Convolution"
  bottom: "pool3/3x3_s2"
  top: "inception_4a/1x1"
  param {
    lr_mult: 1
    decay_mult: 1
  }
  param {
    lr_mult: 2
    decay_mult: 0
  }
  convolution_param {
    num_output: 192
    kernel_size: 1
    weight_filler {
      type: "xavier"
    }
    bias_filler {
      type: "constant"
      value: 0.2
    }
  }
}
layer {
  name: "inception_4a/relu_1x1"
  type: "ReLU"
  bottom: "inception_4a/1x1"
  top: "inception_4a/1x1"
}
layer {
  name: "inception_4a/3x3_reduce"
  type: "Convolution"
  bottom: "pool3/3x3_s2"
  top: "inception_4a/3x3_reduce"
  param {
    lr_mult: 1
    decay_mult: 1
  }
  param {
    lr_mult: 2
    decay_mult: 0
  }
  convolution_param {
    num_output: 96
    kernel_size: 1
    weight_filler {
      type: "xavier"
    }
    bias_filler {
      type: "constant"
      value: 0.2
    }
  }
}
layer {
  name: "inception_4a/relu_3x3_reduce"
  type: "ReLU"
  bottom: "inception_4a/3x3_reduce"
  top: "inception_4a/3x3_reduce"
}
layer {
  name: "inception_4a/3x3"
  type: "Convolution"
  bottom: "inception_4a/3x3_reduce"
  top: "inception_4a/3x3"
  param {
    lr_mult: 1
    decay_mult: 1
  }
  param {
    lr_mult: 2
    decay_mult: 0
  }
  convolution_param {
    num_output: 208
    pad: 1
    kernel_size: 3
    weight_filler {
      type: "xavier"
    }
    bias_filler {
      type: "constant"
      value: 0.2
    }
  }
}
layer {
  name: "inception_4a/relu_3x3"
  type: "ReLU"
  bottom: "inception_4a/3x3"
  top: "inception_4a/3x3"
}
layer {
  name: "inception_4a/5x5_reduce"
  type: "Convolution"
  bottom: "pool3/3x3_s2"
  top: "inception_4a/5x5_reduce"
  param {
    lr_mult: 1
    decay_mult: 1
  }
  param {
    lr_mult: 2
    decay_mult: 0
  }
  convolution_param {
    num_output: 16
    kernel_size: 1
    weight_filler {
      type: "xavier"
    }
    bias_filler {
      type: "constant"
      value: 0.2
    }
  }
}
layer {
  name: "inception_4a/relu_5x5_reduce"
  type: "ReLU"
  bottom: "inception_4a/5x5_reduce"
  top: "inception_4a/5x5_reduce"
}
layer {
  name: "inception_4a/5x5"
  type: "Convolution"
  bottom: "inception_4a/5x5_reduce"
  top: "inception_4a/5x5"
  param {
    lr_mult: 1
    decay_mult: 1
  }
  param {
    lr_mult: 2
    decay_mult: 0
  }
  convolution_param {
    num_output: 48
    pad: 2
    kernel_size: 5
    weight_filler {
      type: "xavier"
    }
    bias_filler {
      type: "constant"
      value: 0.2
    }
  }
}
layer {
  name: "inception_4a/relu_5x5"
  type: "ReLU"
  bottom: "inception_4a/5x5"
  top: "inception_4a/5x5"
}
layer {
  name: "inception_4a/pool"
  type: "Pooling"
  bottom: "pool3/3x3_s2"
  top: "inception_4a/pool"
  pooling_param {
    pool: MAX
    kernel_size: 3
    stride: 1
    pad: 1
  }
}
layer {
  name: "inception_4a/pool_proj"
  type: "Convolution"
  bottom: "inception_4a/pool"
  top: "inception_4a/pool_proj"
  param {
    lr_mult: 1
    decay_mult: 1
  }
  param {
    lr_mult: 2
    decay_mult: 0
  }
  convolution_param {
    num_output: 64
    kernel_size: 1
    weight_filler {
      type: "xavier"
    }
    bias_filler {
      type: "constant"
      value: 0.2
    }
  }
}
layer {
  name: "inception_4a/relu_pool_proj"
  type: "ReLU"
  bottom: "inception_4a/pool_proj"
  top: "inception_4a/pool_proj"
}
layer {
  name: "inception_4a/output"
  type: "Concat"
  bottom: "inception_4a/1x1"
  bottom: "inception_4a/3x3"
  bottom: "inception_4a/5x5"
  bottom: "inception_4a/pool_proj"
  top: "inception_4a/output"
}
layer {
  name: "loss1/ave_pool"
  type: "Pooling"
  bottom: "inception_4a/output"
  top: "loss1/ave_pool"
  pooling_param {
    pool: AVE
    kernel_size: 5
    stride: 3
  }
}
layer {
  name: "loss1/conv"
  type: "Convolution"
  bottom: "loss1/ave_pool"
  top: "loss1/conv"
  param {
    lr_mult: 1
    decay_mult: 1
  }
  param {
    lr_mult: 2
    decay_mult: 0
  }
  convolution_param {
    num_output: 128
    kernel_size: 1
    weight_filler {
      type: "xavier"
    }
    bias_filler {
      type: "constant"
      value: 0.2
    }
  }
}
layer {
  name: "loss1/relu_conv"
  type: "ReLU"
  bottom: "loss1/conv"
  top: "loss1/conv"
}
layer {
  name: "loss1/fc"
  type: "InnerProduct"
  bottom: "loss1/conv"
  top: "loss1/fc"
  param {
    lr_mult: 1
    decay_mult: 1
  }
  param {
    lr_mult: 2
    decay_mult: 0
  }
  inner_product_param {
    num_output: 1024
    weight_filler {
      type: "xavier"
    }
    bias_filler {
      type: "constant"
      value: 0.2
    }
  }
}
layer {
  name: "loss1/relu_fc"
  type: "ReLU"
  bottom: "loss1/fc"
  top: "loss1/fc"
}
layer {
  name: "loss1/drop_fc"
  type: "Dropout"
…
I0315 22:04:58.208580 22489 net.cpp:131] Top shape: 10 512 14 14 (1003520)
I0315 22:04:58.208585 22489 net.cpp:131] Top shape: 10 512 14 14 (1003520)
I0315 22:04:58.208587 22489 net.cpp:131] Top shape: 10 512 14 14 (1003520)
I0315 22:04:58.208591 22489 net.cpp:131] Top shape: 10 512 14 14 (1003520)
I0315 22:04:58.208593 22489 net.cpp:139] Memory required for data: 423861760
I0315 22:04:58.208596 22489 layer_factory.hpp:77] Creating layer inception_4c/1x1
I0315 22:04:58.208603 22489 net.cpp:86] Creating Layer inception_4c/1x1
I0315 22:04:58.208606 22489 net.cpp:408] inception_4c/1x1 <- inception_4b/output_inception_4b/output_0_split_0
I0315 22:04:58.208611 22489 net.cpp:382] inception_4c/1x1 -> inception_4c/1x1
I0315 22:04:58.209087 22489 net.cpp:124] Setting up inception_4c/1x1
I0315 22:04:58.209095 22489 net.cpp:131] Top shape: 10 128 14 14 (250880)
I0315 22:04:58.209096 22489 net.cpp:139] Memory required for data: 424865280
I0315 22:04:58.209101 22489 layer_factory.hpp:77] Creating layer inception_4c/relu_1x1
I0315 22:04:58.209106 22489 net.cpp:86] Creating Layer inception_4c/relu_1x1
I0315 22:04:58.209110 22489 net.cpp:408] inception_4c/relu_1x1 <- inception_4c/1x1
I0315 22:04:58.209113 22489 net.cpp:369] inception_4c/relu_1x1 -> inception_4c/1x1 (in-place)
I0315 22:04:58.209118 22489 net.cpp:124] Setting up inception_4c/relu_1x1
I0315 22:04:58.209122 22489 net.cpp:131] Top shape: 10 128 14 14 (250880)
I0315 22:04:58.209125 22489 net.cpp:139] Memory required for data: 425868800
I0315 22:04:58.209127 22489 layer_factory.hpp:77] Creating layer inception_4c/3x3_reduce
I0315 22:04:58.209133 22489 net.cpp:86] Creating Layer inception_4c/3x3_reduce
I0315 22:04:58.209136 22489 net.cpp:408] inception_4c/3x3_reduce <- inception_4b/output_inception_4b/output_0_split_1
I0315 22:04:58.209141 22489 net.cpp:382] inception_4c/3x3_reduce -> inception_4c/3x3_reduce
I0315 22:04:58.209615 22489 net.cpp:124] Setting up inception_4c/3x3_reduce
I0315 22:04:58.209622 22489 net.cpp:131] Top shape: 10 128 14 14 (250880)
I0315 22:04:58.209625 22489 net.cpp:139] Memory required for data: 426872320
I0315 22:04:58.209630 22489 layer_factory.hpp:77] Creating layer inception_4c/relu_3x3_reduce
I0315 22:04:58.209635 22489 net.cpp:86] Creating Layer inception_4c/relu_3x3_reduce
I0315 22:04:58.209637 22489 net.cpp:408] inception_4c/relu_3x3_reduce <- inception_4c/3x3_reduce
I0315 22:04:58.209642 22489 net.cpp:369] inception_4c/relu_3x3_reduce -> inception_4c/3x3_reduce (in-place)
I0315 22:04:58.209650 22489 net.cpp:124] Setting up inception_4c/relu_3x3_reduce
I0315 22:04:58.209655 22489 net.cpp:131] Top shape: 10 128 14 14 (250880)
I0315 22:04:58.209656 22489 net.cpp:139] Memory required for data: 427875840
I0315 22:04:58.209659 22489 layer_factory.hpp:77] Creating layer inception_4c/3x3
I0315 22:04:58.209666 22489 net.cpp:86] Creating Layer inception_4c/3x3
I0315 22:04:58.209668 22489 net.cpp:408] inception_4c/3x3 <- inception_4c/3x3_reduce
I0315 22:04:58.209673 22489 net.cpp:382] inception_4c/3x3 -> inception_4c/3x3
I0315 22:04:58.211273 22489 net.cpp:124] Setting up inception_4c/3x3
I0315 22:04:58.211282 22489 net.cpp:131] Top shape: 10 256 14 14 (501760)
I0315 22:04:58.211284 22489 net.cpp:139] Memory required for data: 429882880
I0315 22:04:58.211288 22489 layer_factory.hpp:77] Creating layer inception_4c/relu_3x3
I0315 22:04:58.211293 22489 net.cpp:86] Creating Layer inception_4c/relu_3x3
I0315 22:04:58.211297 22489 net.cpp:408] inception_4c/relu_3x3 <- inception_4c/3x3
I0315 22:04:58.211302 22489 net.cpp:369] inception_4c/relu_3x3 -> inception_4c/3x3 (in-place)
I0315 22:04:58.211305 22489 net.cpp:124] Setting up inception_4c/relu_3x3
I0315 22:04:58.211309 22489 net.cpp:131] Top shape: 10 256 14 14 (501760)
I0315 22:04:58.211313 22489 net.cpp:139] Memory required for data: 431889920
I0315 22:04:58.211314 22489 layer_factory.hpp:77] Creating layer inception_4c/5x5_reduce
I0315 22:04:58.211321 22489 net.cpp:86] Creating Layer inception_4c/5x5_reduce
I0315 22:04:58.211324 22489 net.cpp:408] inception_4c/5x5_reduce <- inception_4b/output_inception_4b/output_0_split_2
I0315 22:04:58.211329 22489 net.cpp:382] inception_4c/5x5_reduce -> inception_4c/5x5_reduce
I0315 22:04:58.211558 22489 net.cpp:124] Setting up inception_4c/5x5_reduce
I0315 22:04:58.211565 22489 net.cpp:131] Top shape: 10 24 14 14 (47040)
I0315 22:04:58.211567 22489 net.cpp:139] Memory required for data: 432078080
I0315 22:04:58.211572 22489 layer_factory.hpp:77] Creating layer inception_4c/relu_5x5_reduce
I0315 22:04:58.211577 22489 net.cpp:86] Creating Layer inception_4c/relu_5x5_reduce
I0315 22:04:58.211580 22489 net.cpp:408] inception_4c/relu_5x5_reduce <- inception_4c/5x5_reduce
I0315 22:04:58.211585 22489 net.cpp:369] inception_4c/relu_5x5_reduce -> inception_4c/5x5_reduce (in-place)
I0315 22:04:58.211590 22489 net.cpp:124] Setting up inception_4c/relu_5x5_reduce
I0315 22:04:58.211593 22489 net.cpp:131] Top shape: 10 24 14 14 (47040)
I0315 22:04:58.211596 22489 net.cpp:139] Memory required for data: 432266240
I0315 22:04:58.211598 22489 layer_factory.hpp:77] Creating layer inception_4c/5x5
I0315 22:04:58.211604 22489 net.cpp:86] Creating Layer inception_4c/5x5
I0315 22:04:58.211607 22489 net.cpp:408] inception_4c/5x5 <- inception_4c/5x5_reduce
I0315 22:04:58.211612 22489 net.cpp:382] inception_4c/5x5 -> inception_4c/5x5
I0315 22:04:58.211959 22489 net.cpp:124] Setting up inception_4c/5x5
I0315 22:04:58.211966 22489 net.cpp:131] Top shape: 10 64 14 14 (125440)
I0315 22:04:58.211968 22489 net.cpp:139] Memory required for data: 432768000
I0315 22:04:58.211973 22489 layer_factory.hpp:77] Creating layer inception_4c/relu_5x5
I0315 22:04:58.211977 22489 net.cpp:86] Creating Layer inception_4c/relu_5x5
I0315 22:04:58.211980 22489 net.cpp:408] inception_4c/relu_5x5 <- inception_4c/5x5
I0315 22:04:58.211984 22489 net.cpp:369] inception_4c/relu_5x5 -> inception_4c/5x5 (in-place)
I0315 22:04:58.211989 22489 net.cpp:124] Setting up inception_4c/relu_5x5
I0315 22:04:58.211992 22489 net.cpp:131] Top shape: 10 64 14 14 (125440)
I0315 22:04:58.211995 22489 net.cpp:139] Memory required for data: 433269760
I0315 22:04:58.211998 22489 layer_factory.hpp:77] Creating layer inception_4c/pool
I0315 22:04:58.212002 22489 net.cpp:86] Creating Layer inception_4c/pool
I0315 22:04:58.212007 22489 net.cpp:408] inception_4c/pool <- inception_4b/output_inception_4b/output_0_split_3
I0315 22:04:58.212010 22489 net.cpp:382] inception_4c/pool -> inception_4c/pool
I0315 22:04:58.212036 22489 net.cpp:124] Setting up inception_4c/pool
I0315 22:04:58.212045 22489 net.cpp:131] Top shape: 10 512 14 14 (1003520)
I0315 22:04:58.212049 22489 net.cpp:139] Memory required for data: 437283840
I0315 22:04:58.212051 22489 layer_factory.hpp:77] Creating layer inception_4c/pool_proj
I0315 22:04:58.212057 22489 net.cpp:86] Creating Layer inception_4c/pool_proj
I0315 22:04:58.212060 22489 net.cpp:408] inception_4c/pool_proj <- inception_4c/pool
I0315 22:04:58.212065 22489 net.cpp:382] inception_4c/pool_proj -> inception_4c/pool_proj
I0315 22:04:58.212385 22489 net.cpp:124] Setting up inception_4c/pool_proj
I0315 22:04:58.212391 22489 net.cpp:131] Top shape: 10 64 14 14 (125440)
I0315 22:04:58.212394 22489 net.cpp:139] Memory required for data: 437785600
I0315 22:04:58.212404 22489 layer_factory.hpp:77] Creating layer inception_4c/relu_pool_proj
I0315 22:04:58.212409 22489 net.cpp:86] Creating Layer inception_4c/relu_pool_proj
I0315 22:04:58.212412 22489 net.cpp:408] inception_4c/relu_pool_proj <- inception_4c/pool_proj
I0315 22:04:58.212416 22489 net.cpp:369] inception_4c/relu_pool_proj -> inception_4c/pool_proj (in-place)
I0315 22:04:58.212421 22489 net.cpp:124] Setting up inception_4c/relu_pool_proj
I0315 22:04:58.212425 22489 net.cpp:131] Top shape: 10 64 14 14 (125440)
I0315 22:04:58.212427 22489 net.cpp:139] Memory required for data: 438287360
I0315 22:04:58.212430 22489 layer_factory.hpp:77] Creating layer inception_4c/output
I0315 22:04:58.212435 22489 net.cpp:86] Creating Layer inception_4c/output
I0315 22:04:58.212438 22489 net.cpp:408] inception_4c/output <- inception_4c/1x1
I0315 22:04:58.212441 22489 net.cpp:408] inception_4c/output <- inception_4c/3x3
I0315 22:04:58.212445 22489 net.cpp:408] inception_4c/output <- inception_4c/5x5
I0315 22:04:58.212448 22489 net.cpp:408] inception_4c/output <- inception_4c/pool_proj
I0315 22:04:58.212452 22489 net.cpp:382] inception_4c/output -> inception_4c/output
I0315 22:04:58.212471 22489 net.cpp:124] Setting up inception_4c/output
I0315 22:04:58.212476 22489 net.cpp:131] Top shape: 10 512 14 14 (1003520)
I0315 22:04:58.212478 22489 net.cpp:139] Memory required for data: 442301440
I0315 22:04:58.212481 22489 layer_factory.hpp:77] Creating layer inception_4c/output_inception_4c/output_0_split
I0315 22:04:58.212486 22489 net.cpp:86] Creating Layer inception_4c/output_inception_4c/output_0_split
I0315 22:04:58.212489 22489 net.cpp:408] inception_4c/output_inception_4c/output_0_split <- inception_4c/output
I0315 22:04:58.212493 22489 net.cpp:382] inception_4c/output_inception_4c/output_0_split -> inception_4c/output_inception_4c/output_0_split_0
I0315 22:04:58.212499 22489 net.cpp:382] inception_4c/output_inception_4c/output_0_split -> inception_4c/output_inception_4c/output_0_split_1
I0315 22:04:58.212504 22489 net.cpp:382] inception_4c/output_inception_4c/output_0_split -> inception_4c/output_inception_4c/output_0_split_2
I0315 22:04:58.212510 22489 net.cpp:382] inception_4c/output_inception_4c/output_0_split -> inception_4c/output_inception_4c/output_0_split_3
I0315 22:04:58.212549 22489 net.cpp:124] Setting up inception_4c/output_inception_4c/output_0_split
I0315 22:04:58.212554 22489 net.cpp:131] Top shape: 10 512 14 14 (1003520)
I0315 22:04:58.212558 22489 net.cpp:131] Top shape: 10 512 14 14 (1003520)
I0315 22:04:58.212561 22489 net.cpp:131] Top shape: 10 512 14 14 (1003520)
I0315 22:04:58.212564 22489 net.cpp:131] Top shape: 10 512 14 14 (1003520)
I0315 22:04:58.212568 22489 net.cpp:139] Memory required for data: 458357760
I0315 22:04:58.212570 22489 layer_factory.hpp:77] Creating layer inception_4d/1x1
I0315 22:04:58.212576 22489 net.cpp:86] Creating Layer inception_4d/1x1
I0315 22:04:58.212579 22489 net.cpp:408] inception_4d/1x1 <- inception_4c/output_inception_4c/output_0_split_0
I0315 22:04:58.212584 22489 net.cpp:382] inception_4d/1x1 -> inception_4d/1x1
I0315 22:04:58.213726 22489 net.cpp:124] Setting up inception_4d/1x1
I0315 22:04:58.213738 22489 net.cpp:131] Top shape: 10 112 14 14 (219520)
I0315 22:04:58.213742 22489 net.cpp:139] Memory required for data: 459235840
I0315 22:04:58.213747 22489 layer_factory.hpp:77] Creating layer inception_4d/relu_1x1
I0315 22:04:58.213757 22489 net.cpp:86] Creating Layer inception_4d/relu_1x1
I0315 22:04:58.213760 22489 net.cpp:408] inception_4d/relu_1x1 <- inception_4d/1x1
I0315 22:04:58.213765 22489 net.cpp:369] inception_4d/relu_1x1 -> inception_4d/1x1 (in-place)
I0315 22:04:58.213771 22489 net.cpp:124] Setting up inception_4d/relu_1x1
I0315 22:04:58.213775 22489 net.cpp:131] Top shape: 10 112 14 14 (219520)
I0315 22:04:58.213778 22489 net.cpp:139] Memory required for data: 460113920
I0315 22:04:58.213780 22489 layer_factory.hpp:77] Creating layer inception_4d/3x3_reduce
I0315 22:04:58.213788 22489 net.cpp:86] Creating Layer inception_4d/3x3_reduce
I0315 22:04:58.213790 22489 net.cpp:408] inception_4d/3x3_reduce <- inception_4c/output_inception_4c/output_0_split_1
I0315 22:04:58.213795 22489 net.cpp:382] inception_4d/3x3_reduce -> inception_4d/3x3_reduce
I0315 22:04:58.214323 22489 net.cpp:124] Setting up inception_4d/3x3_reduce
I0315 22:04:58.214329 22489 net.cpp:131] Top shape: 10 144 14 14 (282240)
I0315 22:04:58.214331 22489 net.cpp:139] Memory required for data: 461242880
I0315 22:04:58.214336 22489 layer_factory.hpp:77] Creating layer inception_4d/relu_3x3_reduce
I0315 22:04:58.214341 22489 net.cpp:86] Creating Layer inception_4d/relu_3x3_reduce
I0315 22:04:58.214344 22489 net.cpp:408] inception_4d/relu_3x3_reduce <- inception_4d/3x3_reduce
I0315 22:04:58.214349 22489 net.cpp:369] inception_4d/relu_3x3_reduce -> inception_4d/3x3_reduce (in-place)
I0315 22:04:58.214354 22489 net.cpp:124] Setting up inception_4d/relu_3x3_reduce
I0315 22:04:58.214357 22489 net.cpp:131] Top shape: 10 144 14 14 (282240)
I0315 22:04:58.214359 22489 net.cpp:139] Memory required for data: 462371840
I0315 22:04:58.214362 22489 layer_factory.hpp:77] Creating layer inception_4d/3x3
I0315 22:04:58.214370 22489 net.cpp:86] Creating Layer inception_4d/3x3
I0315 22:04:58.214372 22489 net.cpp:408] inception_4d/3x3 <- inception_4d/3x3_reduce
I0315 22:04:58.214377 22489 net.cpp:382] inception_4d/3x3 -> inception_4d/3x3
I0315 22:04:58.217197 22489 net.cpp:124] Setting up inception_4d/3x3
I0315 22:04:58.217209 22489 net.cpp:131] Top shape: 10 288 14 14 (564480)
I0315 22:04:58.217212 22489 net.cpp:139] Memory required for data: 464629760
I0315 22:04:58.217218 22489 layer_factory.hpp:77] Creating layer inception_4d/relu_3x3
I0315 22:04:58.217224 22489 net.cpp:86] Creating Layer inception_4d/relu_3x3
I0315 22:04:58.217227 22489 net.cpp:408] inception_4d/relu_3x3 <- inception_4d/3x3
I0315 22:04:58.217232 22489 net.cpp:369] inception_4d/relu_3x3 -> inception_4d/3x3 (in-place)
I0315 22:04:58.217238 22489 net.cpp:124] Setting up inception_4d/relu_3x3
I0315 22:04:58.217242 22489 net.cpp:131] Top shape: 10 288 14 14 (564480)
I0315 22:04:58.217244 22489 net.cpp:139] Memory required for data: 466887680
I0315 22:04:58.217247 22489 layer_factory.hpp:77] Creating layer inception_4d/5x5_reduce
I0315 22:04:58.217254 22489 net.cpp:86] Creating Layer inception_4d/5x5_reduce
I0315 22:04:58.217257 22489 net.cpp:408] inception_4d/5x5_reduce <- inception_4c/output_inception_4c/output_0_split_2
I0315 22:04:58.217263 22489 net.cpp:382] inception_4d/5x5_reduce -> inception_4d/5x5_reduce
I0315 22:04:58.217511 22489 net.cpp:124] Setting up inception_4d/5x5_reduce
I0315 22:04:58.217519 22489 net.cpp:131] Top shape: 10 32 14 14 (62720)
I0315 22:04:58.217521 22489 net.cpp:139] Memory required for data: 467138560
I0315 22:04:58.217525 22489 layer_factory.hpp:77] Creating layer inception_4d/relu_5x5_reduce
I0315 22:04:58.217530 22489 net.cpp:86] Creating Layer inception_4d/relu_5x5_reduce
I0315 22:04:58.217533 22489 net.cpp:408] inception_4d/relu_5x5_reduce <- inception_4d/5x5_reduce
I0315 22:04:58.217537 22489 net.cpp:369] inception_4d/relu_5x5_reduce -> inception_4d/5x5_reduce (in-place)
I0315 22:04:58.217542 22489 net.cpp:124] Setting up inception_4d/relu_5x5_reduce
I0315 22:04:58.217545 22489 net.cpp:131] Top shape: 10 32 14 14 (62720)
I0315 22:04:58.217548 22489 net.cpp:139] Memory required for data: 467389440
I0315 22:04:58.217551 22489 layer_factory.hpp:77] Creating layer inception_4d/5x5
I0315 22:04:58.217561 22489 net.cpp:86] Creating Layer inception_4d/5x5
I0315 22:04:58.217564 22489 net.cpp:408] inception_4d/5x5 <- inception_4d/5x5_reduce
I0315 22:04:58.217571 22489 net.cpp:382] inception_4d/5x5 -> inception_4d/5x5
I0315 22:04:58.217984 22489 net.cpp:124] Setting up inception_4d/5x5
I0315 22:04:58.217990 22489 net.cpp:131] Top shape: 10 64 14 14 (125440)
I0315 22:04:58.217993 22489 net.cpp:139] Memory required for data: 467891200
I0315 22:04:58.217998 22489 layer_factory.hpp:77] Creating layer inception_4d/relu_5x5
I0315 22:04:58.218003 22489 net.cpp:86] Creating Layer inception_4d/relu_5x5
I0315 22:04:58.218005 22489 net.cpp:408] inception_4d/relu_5x5 <- inception_4d/5x5
I0315 22:04:58.218009 22489 net.cpp:369] inception_4d/relu_5x5 -> inception_4d/5x5 (in-place)
I0315 22:04:58.218014 22489 net.cpp:124] Setting up inception_4d/relu_5x5
I0315 22:04:58.218019 22489 net.cpp:131] Top shape: 10 64 14 14 (125440)
I0315 22:04:58.218020 22489 net.cpp:139] Memory required for data: 468392960
I0315 22:04:58.218024 22489 layer_factory.hpp:77] Creating layer inception_4d/pool
I0315 22:04:58.218029 22489 net.cpp:86] Creating Layer inception_4d/pool
I0315 22:04:58.218031 22489 net.cpp:408] inception_4d/pool <- inception_4c/output_inception_4c/output_0_split_3
I0315 22:04:58.218036 22489 net.cpp:382] inception_4d/pool -> inception_4d/pool
I0315 22:04:58.218063 22489 net.cpp:124] Setting up inception_4d/pool
I0315 22:04:58.218068 22489 net.cpp:131] Top shape: 10 512 14 14 (1003520)
I0315 22:04:58.218071 22489 net.cpp:139] Memory required for data: 472407040
I0315 22:04:58.218075 22489 layer_factory.hpp:77] Creating layer inception_4d/pool_proj
I0315 22:04:58.218080 22489 net.cpp:86] Creating Layer inception_4d/pool_proj
I0315 22:04:58.218083 22489 net.cpp:408] inception_4d/pool_proj <- inception_4d/pool
I0315 22:04:58.218088 22489 net.cpp:382] inception_4d/pool_proj -> inception_4d/pool_proj
I0315 22:04:58.218407 22489 net.cpp:124] Setting up inception_4d/pool_proj
I0315 22:04:58.218413 22489 net.cpp:131] Top shape: 10 64 14 14 (125440)
I0315 22:04:58.218416 22489 net.cpp:139] Memory required for data: 472908800
I0315 22:04:58.218421 22489 layer_factory.hpp:77] Creating layer inception_4d/relu_pool_proj
I0315 22:04:58.218425 22489 net.cpp:86] Creating Layer inception_4d/relu_pool_proj
I0315 22:04:58.218428 22489 net.cpp:408] inception_4d/relu_pool_proj <- inception_4d/pool_proj
I0315 22:04:58.218433 22489 net.cpp:369] inception_4d/relu_pool_proj -> inception_4d/pool_proj (in-place)
I0315 22:04:58.218437 22489 net.cpp:124] Setting up inception_4d/relu_pool_proj
I0315 22:04:58.218441 22489 net.cpp:131] Top shape: 10 64 14 14 (125440)
I0315 22:04:58.218444 22489 net.cpp:139] Memory required for data: 473410560
I0315 22:04:58.218447 22489 layer_factory.hpp:77] Creating layer inception_4d/output
I0315 22:04:58.218452 22489 net.cpp:86] Creating Layer inception_4d/output
I0315 22:04:58.218456 22489 net.cpp:408] inception_4d/output <- inception_4d/1x1
I0315 22:04:58.218458 22489 net.cpp:408] inception_4d/output <- inception_4d/3x3
I0315 22:04:58.218461 22489 net.cpp:408] inception_4d/output <- inception_4d/5x5
I0315 22:04:58.218466 22489 net.cpp:408] inception_4d/output <- inception_4d/pool_proj
I0315 22:04:58.218469 22489 net.cpp:382] inception_4d/output -> inception_4d/output
I0315 22:04:58.218487 22489 net.cpp:124] Setting up inception_4d/output
I0315 22:04:58.218492 22489 net.cpp:131] Top shape: 10 528 14 14 (1034880)
I0315 22:04:58.218494 22489 net.cpp:139] Memory required for data: 477550080
I0315 22:04:58.218497 22489 layer_factory.hpp:77] Creating layer inception_4d/output_inception_4d/output_0_split
I0315 22:04:58.218502 22489 net.cpp:86] Creating Layer inception_4d/output_inception_4d/output_0_split
I0315 22:04:58.218505 22489 net.cpp:408] inception_4d/output_inception_4d/output_0_split <- inception_4d/output
I0315 22:04:58.218510 22489 net.cpp:382] inception_4d/output_inception_4d/output_0_split -> inception_4d/output_inception_4d/output_0_split_0
I0315 22:04:58.218519 22489 net.cpp:382] inception_4d/output_inception_4d/output_0_split -> inception_4d/output_inception_4d/output_0_split_1
I0315 22:04:58.218525 22489 net.cpp:382] inception_4d/output_inception_4d/output_0_split -> inception_4d/output_inception_4d/output_0_split_2
I0315 22:04:58.218531 22489 net.cpp:382] inception_4d/output_inception_4d/output_0_split -> inception_4d/output_inception_4d/output_0_split_3
I0315 22:04:58.218570 22489 net.cpp:124] Setting up inception_4d/output_inception_4d/output_0_split
I0315 22:04:58.218575 22489 net.cpp:131] Top shape: 10 528 14 14 (1034880)
I0315 22:04:58.218580 22489 net.cpp:131] Top shape: 10 528 14 14 (1034880)
I0315 22:04:58.218583 22489 net.cpp:131] Top shape: 10 528 14 14 (1034880)
I0315 22:04:58.218586 22489 net.cpp:131] Top shape: 10 528 14 14 (1034880)
I0315 22:04:58.218590 22489 net.cpp:139] Memory required for data: 494108160
I0315 22:04:58.218591 22489 layer_factory.hpp:77] Creating layer inception_4e/1x1
I0315 22:04:58.218598 22489 net.cpp:86] Creating Layer inception_4e/1x1
I0315 22:04:58.218601 22489 net.cpp:408] inception_4e/1x1 <- inception_4d/output_inception_4d/output_0_split_0
I0315 22:04:58.218606 22489 net.cpp:382] inception_4e/1x1 -> inception_4e/1x1
I0315 22:04:58.219480 22489 net.cpp:124] Setting up inception_4e/1x1
I0315 22:04:58.219504 22489 net.cpp:131] Top shape: 10 256 14 14 (501760)
I0315 22:04:58.219507 22489 net.cpp:139] Memory required for data: 496115200
I0315 22:04:58.219512 22489 layer_factory.hpp:77] Creating layer inception_4e/relu_1x1
I0315 22:04:58.219517 22489 net.cpp:86] Creating Layer inception_4e/relu_1x1
I0315 22:04:58.219521 22489 net.cpp:408] inception_4e/relu_1x1 <- inception_4e/1x1
I0315 22:04:58.219525 22489 net.cpp:369] inception_4e/relu_1x1 -> inception_4e/1x1 (in-place)
I0315 22:04:58.219530 22489 net.cpp:124] Setting up inception_4e/relu_1x1
I0315 22:04:58.219534 22489 net.cpp:131] Top shape: 10 256 14 14 (501760)
I0315 22:04:58.219537 22489 net.cpp:139] Memory required for data: 498122240
I0315 22:04:58.219540 22489 layer_factory.hpp:77] Creating layer inception_4e/3x3_reduce
I0315 22:04:58.219547 22489 net.cpp:86] Creating Layer inception_4e/3x3_reduce
I0315 22:04:58.219550 22489 net.cpp:408] inception_4e/3x3_reduce <- inception_4d/output_inception_4d/output_0_split_1
I0315 22:04:58.219555 22489 net.cpp:382] inception_4e/3x3_reduce -> inception_4e/3x3_reduce
I0315 22:04:58.220208 22489 net.cpp:124] Setting up inception_4e/3x3_reduce
I0315 22:04:58.220214 22489 net.cpp:131] Top shape: 10 160 14 14 (313600)
I0315 22:04:58.220217 22489 net.cpp:139] Memory required for data: 499376640
I0315 22:04:58.220222 22489 layer_factory.hpp:77] Creating layer inception_4e/relu_3x3_reduce
I0315 22:04:58.220227 22489 net.cpp:86] Creating Layer inception_4e/relu_3x3_reduce
I0315 22:04:58.220230 22489 net.cpp:408] inception_4e/relu_3x3_reduce <- inception_4e/3x3_reduce
I0315 22:04:58.220234 22489 net.cpp:369] inception_4e/relu_3x3_reduce -> inception_4e/3x3_reduce (in-place)
I0315 22:04:58.220239 22489 net.cpp:124] Setting up inception_4e/relu_3x3_reduce
I0315 22:04:58.220243 22489 net.cpp:131] Top shape: 10 160 14 14 (313600)
I0315 22:04:58.220245 22489 net.cpp:139] Memory required for data: 500631040
I0315 22:04:58.220248 22489 layer_factory.hpp:77] Creating layer inception_4e/3x3
I0315 22:04:58.220254 22489 net.cpp:86] Creating Layer inception_4e/3x3
I0315 22:04:58.220257 22489 net.cpp:408] inception_4e/3x3 <- inception_4e/3x3_reduce
I0315 22:04:58.220262 22489 net.cpp:382] inception_4e/3x3 -> inception_4e/3x3
I0315 22:04:58.223351 22489 net.cpp:124] Setting up inception_4e/3x3
I0315 22:04:58.223364 22489 net.cpp:131] Top shape: 10 320 14 14 (627200)
I0315 22:04:58.223367 22489 net.cpp:139] Memory required for data: 503139840
I0315 22:04:58.223373 22489 layer_factory.hpp:77] Creating layer inception_4e/relu_3x3
I0315 22:04:58.223378 22489 net.cpp:86] Creating Layer inception_4e/relu_3x3
I0315 22:04:58.223382 22489 net.cpp:408] inception_4e/relu_3x3 <- inception_4e/3x3
I0315 22:04:58.223387 22489 net.cpp:369] inception_4e/relu_3x3 -> inception_4e/3x3 (in-place)
I0315 22:04:58.223397 22489 net.cpp:124] Setting up inception_4e/relu_3x3
I0315 22:04:58.223402 22489 net.cpp:131] Top shape: 10 320 14 14 (627200)
I0315 22:04:58.223404 22489 net.cpp:139] Memory required for data: 505648640
I0315 22:04:58.223407 22489 layer_factory.hpp:77] Creating layer inception_4e/5x5_reduce
I0315 22:04:58.223414 22489 net.cpp:86] Creating Layer inception_4e/5x5_reduce
I0315 22:04:58.223417 22489 net.cpp:408] inception_4e/5x5_reduce <- inception_4d/output_inception_4d/output_0_split_2
I0315 22:04:58.223423 22489 net.cpp:382] inception_4e/5x5_reduce -> inception_4e/5x5_reduce
I0315 22:04:58.223673 22489 net.cpp:124] Setting up inception_4e/5x5_reduce
I0315 22:04:58.223680 22489 net.cpp:131] Top shape: 10 32 14 14 (62720)
I0315 22:04:58.223682 22489 net.cpp:139] Memory required for data: 505899520
I0315 22:04:58.223687 22489 layer_factory.hpp:77] Creating layer inception_4e/relu_5x5_reduce
I0315 22:04:58.223692 22489 net.cpp:86] Creating Layer inception_4e/relu_5x5_reduce
I0315 22:04:58.223695 22489 net.cpp:408] inception_4e/relu_5x5_reduce <- inception_4e/5x5_reduce
I0315 22:04:58.223700 22489 net.cpp:369] inception_4e/relu_5x5_reduce -> inception_4e/5x5_reduce (in-place)
I0315 22:04:58.223704 22489 net.cpp:124] Setting up inception_4e/relu_5x5_reduce
I0315 22:04:58.223708 22489 net.cpp:131] Top shape: 10 32 14 14 (62720)
I0315 22:04:58.223711 22489 net.cpp:139] Memory required for data: 506150400
I0315 22:04:58.223713 22489 layer_factory.hpp:77] Creating layer inception_4e/5x5
I0315 22:04:58.223719 22489 net.cpp:86] Creating Layer inception_4e/5x5
I0315 22:04:58.223722 22489 net.cpp:408] inception_4e/5x5 <- inception_4e/5x5_reduce
I0315 22:04:58.223727 22489 net.cpp:382] inception_4e/5x5 -> inception_4e/5x5
I0315 22:04:58.225054 22489 net.cpp:124] Setting up inception_4e/5x5
I0315 22:04:58.225066 22489 net.cpp:131] Top shape: 10 128 14 14 (250880)
I0315 22:04:58.225069 22489 net.cpp:139] Memory required for data: 507153920
I0315 22:04:58.225075 22489 layer_factory.hpp:77] Creating layer inception_4e/relu_5x5
I0315 22:04:58.225080 22489 net.cpp:86] Creating Layer inception_4e/relu_5x5
I0315 22:04:58.225085 22489 net.cpp:408] inception_4e/relu_5x5 <- inception_4e/5x5
I0315 22:04:58.225088 22489 net.cpp:369] inception_4e/relu_5x5 -> inception_4e/5x5 (in-place)
I0315 22:04:58.225095 22489 net.cpp:124] Setting up inception_4e/relu_5x5
I0315 22:04:58.225098 22489 net.cpp:131] Top shape: 10 128 14 14 (250880)
I0315 22:04:58.225101 22489 net.cpp:139] Memory required for data: 508157440
I0315 22:04:58.225105 22489 layer_factory.hpp:77] Creating layer inception_4e/pool
I0315 22:04:58.225108 22489 net.cpp:86] Creating Layer inception_4e/pool
I0315 22:04:58.225112 22489 net.cpp:408] inception_4e/pool <- inception_4d/output_inception_4d/output_0_split_3
I0315 22:04:58.225117 22489 net.cpp:382] inception_4e/pool -> inception_4e/pool
I0315 22:04:58.225147 22489 net.cpp:124] Setting up inception_4e/pool
I0315 22:04:58.225152 22489 net.cpp:131] Top shape: 10 528 14 14 (1034880)
I0315 22:04:58.225154 22489 net.cpp:139] Memory required for data: 512296960
I0315 22:04:58.225157 22489 layer_factory.hpp:77] Creating layer inception_4e/pool_proj
I0315 22:04:58.225164 22489 net.cpp:86] Creating Layer inception_4e/pool_proj
I0315 22:04:58.225167 22489 net.cpp:408] inception_4e/pool_proj <- inception_4e/pool
I0315 22:04:58.225172 22489 net.cpp:382] inception_4e/pool_proj -> inception_4e/pool_proj
I0315 22:04:58.225662 22489 net.cpp:124] Setting up inception_4e/pool_proj
I0315 22:04:58.225668 22489 net.cpp:131] Top shape: 10 128 14 14 (250880)
I0315 22:04:58.225672 22489 net.cpp:139] Memory required for data: 513300480
I0315 22:04:58.225677 22489 layer_factory.hpp:77] Creating layer inception_4e/relu_pool_proj
I0315 22:04:58.225682 22489 net.cpp:86] Creating Layer inception_4e/relu_pool_proj
I0315 22:04:58.225684 22489 net.cpp:408] inception_4e/relu_pool_proj <- inception_4e/pool_proj
I0315 22:04:58.225688 22489 net.cpp:369] inception_4e/relu_pool_proj -> inception_4e/pool_proj (in-place)
I0315 22:04:58.225697 22489 net.cpp:124] Setting up inception_4e/relu_pool_proj
I0315 22:04:58.225703 22489 net.cpp:131] Top shape: 10 128 14 14 (250880)
I0315 22:04:58.225704 22489 net.cpp:139] Memory required for data: 514304000
I0315 22:04:58.225708 22489 layer_factory.hpp:77] Creating layer inception_4e/output
I0315 22:04:58.225713 22489 net.cpp:86] Creating Layer inception_4e/output
I0315 22:04:58.225715 22489 net.cpp:408] inception_4e/output <- inception_4e/1x1
I0315 22:04:58.225719 22489 net.cpp:408] inception_4e/output <- inception_4e/3x3
I0315 22:04:58.225723 22489 net.cpp:408] inception_4e/output <- inception_4e/5x5
I0315 22:04:58.225726 22489 net.cpp:408] inception_4e/output <- inception_4e/pool_proj
I0315 22:04:58.225730 22489 net.cpp:382] inception_4e/output -> inception_4e/output
I0315 22:04:58.225749 22489 net.cpp:124] Setting up inception_4e/output
I0315 22:04:58.225754 22489 net.cpp:131] Top shape: 10 832 14 14 (1630720)
I0315 22:04:58.225757 22489 net.cpp:139] Memory required for data: 520826880
I0315 22:04:58.225760 22489 layer_factory.hpp:77] Creating layer pool4/3x3_s2
I0315 22:04:58.225764 22489 net.cpp:86] Creating Layer pool4/3x3_s2
I0315 22:04:58.225767 22489 net.cpp:408] pool4/3x3_s2 <- inception_4e/output
I0315 22:04:58.225771 22489 net.cpp:382] pool4/3x3_s2 -> pool4/3x3_s2
I0315 22:04:58.225797 22489 net.cpp:124] Setting up pool4/3x3_s2
I0315 22:04:58.225801 22489 net.cpp:131] Top shape: 10 832 7 7 (407680)
I0315 22:04:58.225805 22489 net.cpp:139] Memory required for data: 522457600
I0315 22:04:58.225807 22489 layer_factory.hpp:77] Creating layer pool4/3x3_s2_pool4/3x3_s2_0_split
I0315 22:04:58.225812 22489 net.cpp:86] Creating Layer pool4/3x3_s2_pool4/3x3_s2_0_split
I0315 22:04:58.225816 22489 net.cpp:408] pool4/3x3_s2_pool4/3x3_s2_0_split <- pool4/3x3_s2
I0315 22:04:58.225821 22489 net.cpp:382] pool4/3x3_s2_pool4/3x3_s2_0_split -> pool4/3x3_s2_pool4/3x3_s2_0_split_0
I0315 22:04:58.225826 22489 net.cpp:382] pool4/3x3_s2_pool4/3x3_s2_0_split -> pool4/3x3_s2_pool4/3x3_s2_0_split_1
I0315 22:04:58.225831 22489 net.cpp:382] pool4/3x3_s2_pool4/3x3_s2_0_split -> pool4/3x3_s2_pool4/3x3_s2_0_split_2
I0315 22:04:58.225836 22489 net.cpp:382] pool4/3x3_s2_pool4/3x3_s2_0_split -> pool4/3x3_s2_pool4/3x3_s2_0_split_3
I0315 22:04:58.225875 22489 net.cpp:124] Setting up pool4/3x3_s2_pool4/3x3_s2_0_split
I0315 22:04:58.225880 22489 net.cpp:131] Top shape: 10 832 7 7 (407680)
I0315 22:04:58.225884 22489 net.cpp:131] Top shape: 10 832 7 7 (407680)
I0315 22:04:58.225888 22489 net.cpp:131] Top shape: 10 832 7 7 (407680)
I0315 22:04:58.225891 22489 net.cpp:131] Top shape: 10 832 7 7 (407680)
I0315 22:04:58.225893 22489 net.cpp:139] Memory required for data: 528980480
I0315 22:04:58.225896 22489 layer_factory.hpp:77] Creating layer inception_5a/1x1
I0315 22:04:58.225903 22489 net.cpp:86] Creating Layer inception_5a/1x1
I0315 22:04:58.225906 22489 net.cpp:408] inception_5a/1x1 <- pool4/3x3_s2_pool4/3x3_s2_0_split_0
I0315 22:04:58.225911 22489 net.cpp:382] inception_5a/1x1 -> inception_5a/1x1
I0315 22:04:58.227119 22489 net.cpp:124] Setting up inception_5a/1x1
I0315 22:04:58.227128 22489 net.cpp:131] Top shape: 10 256 7 7 (125440)
I0315 22:04:58.227130 22489 net.cpp:139] Memory required for data: 529482240
I0315 22:04:58.227135 22489 layer_factory.hpp:77] Creating layer inception_5a/relu_1x1
I0315 22:04:58.227140 22489 net.cpp:86] Creating Layer inception_5a/relu_1x1
I0315 22:04:58.227144 22489 net.cpp:408] inception_5a/relu_1x1 <- inception_5a/1x1
I0315 22:04:58.227149 22489 net.cpp:369] inception_5a/relu_1x1 -> inception_5a/1x1 (in-place)
I0315 22:04:58.227154 22489 net.cpp:124] Setting up inception_5a/relu_1x1
I0315 22:04:58.227157 22489 net.cpp:131] Top shape: 10 256 7 7 (125440)
I0315 22:04:58.227159 22489 net.cpp:139] Memory required for data: 529984000
I0315 22:04:58.227162 22489 layer_factory.hpp:77] Creating layer inception_5a/3x3_reduce
I0315 22:04:58.227169 22489 net.cpp:86] Creating Layer inception_5a/3x3_reduce
I0315 22:04:58.227172 22489 net.cpp:408] inception_5a/3x3_reduce <- pool4/3x3_s2_pool4/3x3_s2_0_split_1
I0315 22:04:58.227181 22489 net.cpp:382] inception_5a/3x3_reduce -> inception_5a/3x3_reduce
I0315 22:04:58.227996 22489 net.cpp:124] Setting up inception_5a/3x3_reduce
I0315 22:04:58.228003 22489 net.cpp:131] Top shape: 10 160 7 7 (78400)
I0315 22:04:58.228006 22489 net.cpp:139] Memory required for data: 530297600
I0315 22:04:58.228010 22489 layer_factory.hpp:77] Creating layer inception_5a/relu_3x3_reduce
I0315 22:04:58.228015 22489 net.cpp:86] Creating Layer inception_5a/relu_3x3_reduce
I0315 22:04:58.228018 22489 net.cpp:408] inception_5a/relu_3x3_reduce <- inception_5a/3x3_reduce
I0315 22:04:58.228024 22489 net.cpp:369] inception_5a/relu_3x3_reduce -> inception_5a/3x3_reduce (in-place)
I0315 22:04:58.228029 22489 net.cpp:124] Setting up inception_5a/relu_3x3_reduce
I0315 22:04:58.228031 22489 net.cpp:131] Top shape: 10 160 7 7 (78400)
I0315 22:04:58.228034 22489 net.cpp:139] Memory required for data: 530611200
I0315 22:04:58.228037 22489 layer_factory.hpp:77] Creating layer inception_5a/3x3
I0315 22:04:58.228044 22489 net.cpp:86] Creating Layer inception_5a/3x3
I0315 22:04:58.228046 22489 net.cpp:408] inception_5a/3x3 <- inception_5a/3x3_reduce
I0315 22:04:58.228051 22489 net.cpp:382] inception_5a/3x3 -> inception_5a/3x3
I0315 22:04:58.231132 22489 net.cpp:124] Setting up inception_5a/3x3
I0315 22:04:58.231143 22489 net.cpp:131] Top shape: 10 320 7 7 (156800)
I0315 22:04:58.231147 22489 net.cpp:139] Memory required for data: 531238400
I0315 22:04:58.231153 22489 layer_factory.hpp:77] Creating layer inception_5a/relu_3x3
I0315 22:04:58.231158 22489 net.cpp:86] Creating Layer inception_5a/relu_3x3
I0315 22:04:58.231161 22489 net.cpp:408] inception_5a/relu_3x3 <- inception_5a/3x3
I0315 22:04:58.231166 22489 net.cpp:369] inception_5a/relu_3x3 -> inception_5a/3x3 (in-place)
I0315 22:04:58.231171 22489 net.cpp:124] Setting up inception_5a/relu_3x3
I0315 22:04:58.231175 22489 net.cpp:131] Top shape: 10 320 7 7 (156800)
I0315 22:04:58.231178 22489 net.cpp:139] Memory required for data: 531865600
I0315 22:04:58.231181 22489 layer_factory.hpp:77] Creating layer inception_5a/5x5_reduce
I0315 22:04:58.231189 22489 net.cpp:86] Creating Layer inception_5a/5x5_reduce
I0315 22:04:58.231191 22489 net.cpp:408] inception_5a/5x5_reduce <- pool4/3x3_s2_pool4/3x3_s2_0_split_2
I0315 22:04:58.231196 22489 net.cpp:382] inception_5a/5x5_reduce -> inception_5a/5x5_reduce
I0315 22:04:58.231499 22489 net.cpp:124] Setting up inception_5a/5x5_reduce
I0315 22:04:58.231505 22489 net.cpp:131] Top shape: 10 32 7 7 (15680)
I0315 22:04:58.231509 22489 net.cpp:139] Memory required for data: 531928320
I0315 22:04:58.231513 22489 layer_factory.hpp:77] Creating layer inception_5a/relu_5x5_reduce
I0315 22:04:58.231518 22489 net.cpp:86] Creating Layer inception_5a/relu_5x5_reduce
I0315 22:04:58.231521 22489 net.cpp:408] inception_5a/relu_5x5_reduce <- inception_5a/5x5_reduce
I0315 22:04:58.231525 22489 net.cpp:369] inception_5a/relu_5x5_reduce -> inception_5a/5x5_reduce (in-place)
I0315 22:04:58.231530 22489 net.cpp:124] Setting up inception_5a/relu_5x5_reduce
I0315 22:04:58.231534 22489 net.cpp:131] Top shape: 10 32 7 7 (15680)
I0315 22:04:58.231537 22489 net.cpp:139] Memory required for data: 531991040
I0315 22:04:58.231539 22489 layer_factory.hpp:77] Creating layer inception_5a/5x5
I0315 22:04:58.231546 22489 net.cpp:86] Creating Layer inception_5a/5x5
I0315 22:04:58.231549 22489 net.cpp:408] inception_5a/5x5 <- inception_5a/5x5_reduce
I0315 22:04:58.231554 22489 net.cpp:382] inception_5a/5x5 -> inception_5a/5x5
I0315 22:04:58.232888 22489 net.cpp:124] Setting up inception_5a/5x5
I0315 22:04:58.232899 22489 net.cpp:131] Top shape: 10 128 7 7 (62720)
I0315 22:04:58.232903 22489 net.cpp:139] Memory required for data: 532241920
I0315 22:04:58.232908 22489 layer_factory.hpp:77] Creating layer inception_5a/relu_5x5
I0315 22:04:58.232931 22489 net.cpp:86] Creating Layer inception_5a/relu_5x5
I0315 22:04:58.232935 22489 net.cpp:408] inception_5a/relu_5x5 <- inception_5a/5x5
I0315 22:04:58.232940 22489 net.cpp:369] inception_5a/relu_5x5 -> inception_5a/5x5 (in-place)
I0315 22:04:58.232950 22489 net.cpp:124] Setting up inception_5a/relu_5x5
I0315 22:04:58.232955 22489 net.cpp:131] Top shape: 10 128 7 7 (62720)
I0315 22:04:58.232957 22489 net.cpp:139] Memory required for data: 532492800
I0315 22:04:58.232960 22489 layer_factory.hpp:77] Creating layer inception_5a/pool
I0315 22:04:58.232965 22489 net.cpp:86] Creating Layer inception_5a/pool
I0315 22:04:58.232969 22489 net.cpp:408] inception_5a/pool <- pool4/3x3_s2_pool4/3x3_s2_0_split_3
I0315 22:04:58.232973 22489 net.cpp:382] inception_5a/pool -> inception_5a/pool
I0315 22:04:58.233003 22489 net.cpp:124] Setting up inception_5a/pool
I0315 22:04:58.233008 22489 net.cpp:131] Top shape: 10 832 7 7 (407680)
I0315 22:04:58.233011 22489 net.cpp:139] Memory required for data: 534123520
I0315 22:04:58.233013 22489 layer_factory.hpp:77] Creating layer inception_5a/pool_proj
I0315 22:04:58.233021 22489 net.cpp:86] Creating Layer inception_5a/pool_proj
I0315 22:04:58.233024 22489 net.cpp:408] inception_5a/pool_proj <- inception_5a/pool
I0315 22:04:58.233029 22489 net.cpp:382] inception_5a/pool_proj -> inception_5a/pool_proj
I0315 22:04:58.233712 22489 net.cpp:124] Setting up inception_5a/pool_proj
I0315 22:04:58.233719 22489 net.cpp:131] Top shape: 10 128 7 7 (62720)
I0315 22:04:58.233721 22489 net.cpp:139] Memory required for data: 534374400
I0315 22:04:58.233727 22489 layer_factory.hpp:77] Creating layer inception_5a/relu_pool_proj
I0315 22:04:58.233732 22489 net.cpp:86] Creating Layer inception_5a/relu_pool_proj
I0315 22:04:58.233736 22489 net.cpp:408] inception_5a/relu_pool_proj <- inception_5a/pool_proj
I0315 22:04:58.233739 22489 net.cpp:369] inception_5a/relu_pool_proj -> inception_5a/pool_proj (in-place)
I0315 22:04:58.233744 22489 net.cpp:124] Setting up inception_5a/relu_pool_proj
I0315 22:04:58.233748 22489 net.cpp:131] Top shape: 10 128 7 7 (62720)
I0315 22:04:58.233750 22489 net.cpp:139] Memory required for data: 534625280
I0315 22:04:58.233753 22489 layer_factory.hpp:77] Creating layer inception_5a/output
I0315 22:04:58.233759 22489 net.cpp:86] Creating Layer inception_5a/output
I0315 22:04:58.233762 22489 net.cpp:408] inception_5a/output <- inception_5a/1x1
I0315 22:04:58.233765 22489 net.cpp:408] inception_5a/output <- inception_5a/3x3
I0315 22:04:58.233768 22489 net.cpp:408] inception_5a/output <- inception_5a/5x5
I0315 22:04:58.233772 22489 net.cpp:408] inception_5a/output <- inception_5a/pool_proj
I0315 22:04:58.233777 22489 net.cpp:382] inception_5a/output -> inception_5a/output
I0315 22:04:58.233795 22489 net.cpp:124] Setting up inception_5a/output
I0315 22:04:58.233799 22489 net.cpp:131] Top shape: 10 832 7 7 (407680)
I0315 22:04:58.233803 22489 net.cpp:139] Memory required for data: 536256000
I0315 22:04:58.233805 22489 layer_factory.hpp:77] Creating layer inception_5a/output_inception_5a/output_0_split
I0315 22:04:58.233810 22489 net.cpp:86] Creating Layer inception_5a/output_inception_5a/output_0_split
I0315 22:04:58.233814 22489 net.cpp:408] inception_5a/output_inception_5a/output_0_split <- inception_5a/output
I0315 22:04:58.233819 22489 net.cpp:382] inception_5a/output_inception_5a/output_0_split -> inception_5a/output_inception_5a/output_0_split_0
I0315 22:04:58.233824 22489 net.cpp:382] inception_5a/output_inception_5a/output_0_split -> inception_5a/output_inception_5a/output_0_split_1
I0315 22:04:58.233829 22489 net.cpp:382] inception_5a/output_inception_5a/output_0_split -> inception_5a/output_inception_5a/output_0_split_2
I0315 22:04:58.233835 22489 net.cpp:382] inception_5a/output_inception_5a/output_0_split -> inception_5a/output_inception_5a/output_0_split_3
I0315 22:04:58.233876 22489 net.cpp:124] Setting up inception_5a/output_inception_5a/output_0_split
I0315 22:04:58.233881 22489 net.cpp:131] Top shape: 10 832 7 7 (407680)
I0315 22:04:58.233886 22489 net.cpp:131] Top shape: 10 832 7 7 (407680)
I0315 22:04:58.233888 22489 net.cpp:131] Top shape: 10 832 7 7 (407680)
I0315 22:04:58.233892 22489 net.cpp:131] Top shape: 10 832 7 7 (407680)
I0315 22:04:58.233894 22489 net.cpp:139] Memory required for data: 542778880
I0315 22:04:58.233901 22489 layer_factory.hpp:77] Creating layer inception_5b/1x1
I0315 22:04:58.233906 22489 net.cpp:86] Creating Layer inception_5b/1x1
I0315 22:04:58.233911 22489 net.cpp:408] inception_5b/1x1 <- inception_5a/output_inception_5a/output_0_split_0
I0315 22:04:58.233916 22489 net.cpp:382] inception_5b/1x1 -> inception_5b/1x1
I0315 22:04:58.236340 22489 net.cpp:124] Setting up inception_5b/1x1
I0315 22:04:58.236351 22489 net.cpp:131] Top shape: 10 384 7 7 (188160)
I0315 22:04:58.236354 22489 net.cpp:139] Memory required for data: 543531520
I0315 22:04:58.236361 22489 layer_factory.hpp:77] Creating layer inception_5b/relu_1x1
I0315 22:04:58.236366 22489 net.cpp:86] Creating Layer inception_5b/relu_1x1
I0315 22:04:58.236369 22489 net.cpp:408] inception_5b/relu_1x1 <- inception_5b/1x1
I0315 22:04:58.236374 22489 net.cpp:369] inception_5b/relu_1x1 -> inception_5b/1x1 (in-place)
I0315 22:04:58.236379 22489 net.cpp:124] Setting up inception_5b/relu_1x1
I0315 22:04:58.236383 22489 net.cpp:131] Top shape: 10 384 7 7 (188160)
I0315 22:04:58.236385 22489 net.cpp:139] Memory required for data: 544284160
I0315 22:04:58.236388 22489 layer_factory.hpp:77] Creating layer inception_5b/3x3_reduce
I0315 22:04:58.236395 22489 net.cpp:86] Creating Layer inception_5b/3x3_reduce
I0315 22:04:58.236398 22489 net.cpp:408] inception_5b/3x3_reduce <- inception_5a/output_inception_5a/output_0_split_1
I0315 22:04:58.236404 22489 net.cpp:382] inception_5b/3x3_reduce -> inception_5b/3x3_reduce
I0315 22:04:58.237354 22489 net.cpp:124] Setting up inception_5b/3x3_reduce
I0315 22:04:58.237361 22489 net.cpp:131] Top shape: 10 192 7 7 (94080)
I0315 22:04:58.237363 22489 net.cpp:139] Memory required for data: 544660480
I0315 22:04:58.237368 22489 layer_factory.hpp:77] Creating layer inception_5b/relu_3x3_reduce
I0315 22:04:58.237373 22489 net.cpp:86] Creating Layer inception_5b/relu_3x3_reduce
I0315 22:04:58.237376 22489 net.cpp:408] inception_5b/relu_3x3_reduce <- inception_5b/3x3_reduce
I0315 22:04:58.237380 22489 net.cpp:369] inception_5b/relu_3x3_reduce -> inception_5b/3x3_reduce (in-place)
I0315 22:04:58.237385 22489 net.cpp:124] Setting up inception_5b/relu_3x3_reduce
I0315 22:04:58.237390 22489 net.cpp:131] Top shape: 10 192 7 7 (94080)
I0315 22:04:58.237392 22489 net.cpp:139] Memory required for data: 545036800
I0315 22:04:58.237395 22489 layer_factory.hpp:77] Creating layer inception_5b/3x3
I0315 22:04:58.237401 22489 net.cpp:86] Creating Layer inception_5b/3x3
I0315 22:04:58.237404 22489 net.cpp:408] inception_5b/3x3 <- inception_5b/3x3_reduce
I0315 22:04:58.237409 22489 net.cpp:382] inception_5b/3x3 -> inception_5b/3x3
I0315 22:04:58.241592 22489 net.cpp:124] Setting up inception_5b/3x3
I0315 22:04:58.241605 22489 net.cpp:131] Top shape: 10 384 7 7 (188160)
I0315 22:04:58.241608 22489 net.cpp:139] Memory required for data: 545789440
I0315 22:04:58.241614 22489 layer_factory.hpp:77] Creating layer inception_5b/relu_3x3
I0315 22:04:58.241621 22489 net.cpp:86] Creating Layer inception_5b/relu_3x3
I0315 22:04:58.241623 22489 net.cpp:408] inception_5b/relu_3x3 <- inception_5b/3x3
I0315 22:04:58.241628 22489 net.cpp:369] inception_5b/relu_3x3 -> inception_5b/3x3 (in-place)
I0315 22:04:58.241634 22489 net.cpp:124] Setting up inception_5b/relu_3x3
I0315 22:04:58.241637 22489 net.cpp:131] Top shape: 10 384 7 7 (188160)
I0315 22:04:58.241641 22489 net.cpp:139] Memory required for data: 546542080
I0315 22:04:58.241643 22489 layer_factory.hpp:77] Creating layer inception_5b/5x5_reduce
I0315 22:04:58.241650 22489 net.cpp:86] Creating Layer inception_5b/5x5_reduce
I0315 22:04:58.241653 22489 net.cpp:408] inception_5b/5x5_reduce <- inception_5a/output_inception_5a/output_0_split_2
I0315 22:04:58.241658 22489 net.cpp:382] inception_5b/5x5_reduce -> inception_5b/5x5_reduce
I0315 22:04:58.242028 22489 net.cpp:124] Setting up inception_5b/5x5_reduce
I0315 22:04:58.242034 22489 net.cpp:131] Top shape: 10 48 7 7 (23520)
I0315 22:04:58.242038 22489 net.cpp:139] Memory required for data: 546636160
I0315 22:04:58.242043 22489 layer_factory.hpp:77] Creating layer inception_5b/relu_5x5_reduce
I0315 22:04:58.242051 22489 net.cpp:86] Creating Layer inception_5b/relu_5x5_reduce
I0315 22:04:58.242055 22489 net.cpp:408] inception_5b/relu_5x5_reduce <- inception_5b/5x5_reduce
I0315 22:04:58.242059 22489 net.cpp:369] inception_5b/relu_5x5_reduce -> inception_5b/5x5_reduce (in-place)
I0315 22:04:58.242064 22489 net.cpp:124] Setting up inception_5b/relu_5x5_reduce
I0315 22:04:58.242069 22489 net.cpp:131] Top shape: 10 48 7 7 (23520)
I0315 22:04:58.242070 22489 net.cpp:139] Memory required for data: 546730240
I0315 22:04:58.242074 22489 layer_factory.hpp:77] Creating layer inception_5b/5x5
I0315 22:04:58.242079 22489 net.cpp:86] Creating Layer inception_5b/5x5
I0315 22:04:58.242084 22489 net.cpp:408] inception_5b/5x5 <- inception_5b/5x5_reduce
I0315 22:04:58.242087 22489 net.cpp:382] inception_5b/5x5 -> inception_5b/5x5
I0315 22:04:58.243005 22489 net.cpp:124] Setting up inception_5b/5x5
I0315 22:04:58.243013 22489 net.cpp:131] Top shape: 10 128 7 7 (62720)
I0315 22:04:58.243016 22489 net.cpp:139] Memory required for data: 546981120
I0315 22:04:58.243021 22489 layer_factory.hpp:77] Creating layer inception_5b/relu_5x5
I0315 22:04:58.243026 22489 net.cpp:86] Creating Layer inception_5b/relu_5x5
I0315 22:04:58.243029 22489 net.cpp:408] inception_5b/relu_5x5 <- inception_5b/5x5
I0315 22:04:58.243034 22489 net.cpp:369] inception_5b/relu_5x5 -> inception_5b/5x5 (in-place)
I0315 22:04:58.243038 22489 net.cpp:124] Setting up inception_5b/relu_5x5
I0315 22:04:58.243042 22489 net.cpp:131] Top shape: 10 128 7 7 (62720)
I0315 22:04:58.243046 22489 net.cpp:139] Memory required for data: 547232000
I0315 22:04:58.243048 22489 layer_factory.hpp:77] Creating layer inception_5b/pool
I0315 22:04:58.243052 22489 net.cpp:86] Creating Layer inception_5b/pool
I0315 22:04:58.243055 22489 net.cpp:408] inception_5b/pool <- inception_5a/output_inception_5a/output_0_split_3
I0315 22:04:58.243060 22489 net.cpp:382] inception_5b/pool -> inception_5b/pool
I0315 22:04:58.243089 22489 net.cpp:124] Setting up inception_5b/pool
I0315 22:04:58.243095 22489 net.cpp:131] Top shape: 10 832 7 7 (407680)
I0315 22:04:58.243098 22489 net.cpp:139] Memory required for data: 548862720
I0315 22:04:58.243100 22489 layer_factory.hpp:77] Creating layer inception_5b/pool_proj
I0315 22:04:58.243106 22489 net.cpp:86] Creating Layer inception_5b/pool_proj
I0315 22:04:58.243110 22489 net.cpp:408] inception_5b/pool_proj <- inception_5b/pool
I0315 22:04:58.243114 22489 net.cpp:382] inception_5b/pool_proj -> inception_5b/pool_proj
I0315 22:04:58.243796 22489 net.cpp:124] Setting up inception_5b/pool_proj
I0315 22:04:58.243803 22489 net.cpp:131] Top shape: 10 128 7 7 (62720)
I0315 22:04:58.243806 22489 net.cpp:139] Memory required for data: 549113600
I0315 22:04:58.243811 22489 layer_factory.hpp:77] Creating layer inception_5b/relu_pool_proj
I0315 22:04:58.243815 22489 net.cpp:86] Creating Layer inception_5b/relu_pool_proj
I0315 22:04:58.243819 22489 net.cpp:408] inception_5b/relu_pool_proj <- inception_5b/pool_proj
I0315 22:04:58.243824 22489 net.cpp:369] inception_5b/relu_pool_proj -> inception_5b/pool_proj (in-place)
I0315 22:04:58.243829 22489 net.cpp:124] Setting up inception_5b/relu_pool_proj
I0315 22:04:58.243831 22489 net.cpp:131] Top shape: 10 128 7 7 (62720)
I0315 22:04:58.243834 22489 net.cpp:139] Memory required for data: 549364480
I0315 22:04:58.243837 22489 layer_factory.hpp:77] Creating layer inception_5b/output
I0315 22:04:58.243842 22489 net.cpp:86] Creating Layer inception_5b/output
I0315 22:04:58.243844 22489 net.cpp:408] inception_5b/output <- inception_5b/1x1
I0315 22:04:58.243849 22489 net.cpp:408] inception_5b/output <- inception_5b/3x3
I0315 22:04:58.243851 22489 net.cpp:408] inception_5b/output <- inception_5b/5x5
I0315 22:04:58.243855 22489 net.cpp:408] inception_5b/output <- inception_5b/pool_proj
I0315 22:04:58.243860 22489 net.cpp:382] inception_5b/output -> inception_5b/output
I0315 22:04:58.243877 22489 net.cpp:124] Setting up inception_5b/output
I0315 22:04:58.243882 22489 net.cpp:131] Top shape: 10 1024 7 7 (501760)
I0315 22:04:58.243888 22489 net.cpp:139] Memory required for data: 551371520
I0315 22:04:58.243891 22489 layer_factory.hpp:77] Creating layer pool5/7x7_s1
I0315 22:04:58.243896 22489 net.cpp:86] Creating Layer pool5/7x7_s1
I0315 22:04:58.243899 22489 net.cpp:408] pool5/7x7_s1 <- inception_5b/output
I0315 22:04:58.243903 22489 net.cpp:382] pool5/7x7_s1 -> pool5/7x7_s1
I0315 22:04:58.243921 22489 net.cpp:124] Setting up pool5/7x7_s1
I0315 22:04:58.243926 22489 net.cpp:131] Top shape: 10 1024 1 1 (10240)
I0315 22:04:58.243928 22489 net.cpp:139] Memory required for data: 551412480
I0315 22:04:58.243932 22489 layer_factory.hpp:77] Creating layer pool5/drop_7x7_s1
I0315 22:04:58.243937 22489 net.cpp:86] Creating Layer pool5/drop_7x7_s1
I0315 22:04:58.243940 22489 net.cpp:408] pool5/drop_7x7_s1 <- pool5/7x7_s1
I0315 22:04:58.243944 22489 net.cpp:369] pool5/drop_7x7_s1 -> pool5/7x7_s1 (in-place)
I0315 22:04:58.243960 22489 net.cpp:124] Setting up pool5/drop_7x7_s1
I0315 22:04:58.243965 22489 net.cpp:131] Top shape: 10 1024 1 1 (10240)
I0315 22:04:58.243968 22489 net.cpp:139] Memory required for data: 551453440
I0315 22:04:58.243970 22489 layer_factory.hpp:77] Creating layer loss3/classifier-bird
I0315 22:04:58.243978 22489 net.cpp:86] Creating Layer loss3/classifier-bird
I0315 22:04:58.243980 22489 net.cpp:408] loss3/classifier-bird <- pool5/7x7_s1
I0315 22:04:58.243985 22489 net.cpp:382] loss3/classifier-bird -> loss3/classifier-bird
I0315 22:04:58.244079 22489 net.cpp:124] Setting up loss3/classifier-bird
I0315 22:04:58.244084 22489 net.cpp:131] Top shape: 10 4 (40)
I0315 22:04:58.244087 22489 net.cpp:139] Memory required for data: 551453600
I0315 22:04:58.244092 22489 layer_factory.hpp:77] Creating layer prob
I0315 22:04:58.244096 22489 net.cpp:86] Creating Layer prob
I0315 22:04:58.244099 22489 net.cpp:408] prob <- loss3/classifier-bird
I0315 22:04:58.244103 22489 net.cpp:382] prob -> prob
I0315 22:04:58.244148 22489 net.cpp:124] Setting up prob
I0315 22:04:58.244153 22489 net.cpp:131] Top shape: 10 4 (40)
I0315 22:04:58.244154 22489 net.cpp:139] Memory required for data: 551453760
I0315 22:04:58.244158 22489 net.cpp:202] prob does not need backward computation.
I0315 22:04:58.244161 22489 net.cpp:202] loss3/classifier-bird does not need backward computation.
I0315 22:04:58.244164 22489 net.cpp:202] pool5/drop_7x7_s1 does not need backward computation.
I0315 22:04:58.244166 22489 net.cpp:202] pool5/7x7_s1 does not need backward computation.
…
